<?xml version="1.0"?>
<net name="torch_jit" version="11">
	<layers>
		<layer id="0" name="data" type="Parameter" version="opset1">
			<data shape="1,3,224,224" element_type="f32" />
			<rt_info>
				<attribute name="old_api_map_element_type" version="0" value="f16" />
			</rt_info>
			<output>
				<port id="0" precision="FP32" names="data">
					<dim>1</dim>
					<dim>3</dim>
					<dim>224</dim>
					<dim>224</dim>
				</port>
			</output>
		</layer>
		<layer id="1" name="Constant_6118_compressed" type="Const" version="opset1">
			<data element_type="f16" shape="1, 3, 1, 1" offset="0" size="6" />
			<rt_info>
				<attribute name="preprocessing" version="0" />
			</rt_info>
			<output>
				<port id="0" precision="FP16">
					<dim>1</dim>
					<dim>3</dim>
					<dim>1</dim>
					<dim>1</dim>
				</port>
			</output>
		</layer>
		<layer id="2" name="Constant_6118" type="Convert" version="opset1">
			<data destination_type="f32" />
			<rt_info>
				<attribute name="decompression" version="0" />
				<attribute name="preprocessing" version="0" />
			</rt_info>
			<input>
				<port id="0" precision="FP16">
					<dim>1</dim>
					<dim>3</dim>
					<dim>1</dim>
					<dim>1</dim>
				</port>
			</input>
			<output>
				<port id="1" precision="FP32">
					<dim>1</dim>
					<dim>3</dim>
					<dim>1</dim>
					<dim>1</dim>
				</port>
			</output>
		</layer>
		<layer id="3" name="Multiply_6120" type="Multiply" version="opset1">
			<data auto_broadcast="numpy" />
			<input>
				<port id="0" precision="FP32">
					<dim>1</dim>
					<dim>3</dim>
					<dim>224</dim>
					<dim>224</dim>
				</port>
				<port id="1" precision="FP32">
					<dim>1</dim>
					<dim>3</dim>
					<dim>1</dim>
					<dim>1</dim>
				</port>
			</input>
			<output>
				<port id="2" precision="FP32">
					<dim>1</dim>
					<dim>3</dim>
					<dim>224</dim>
					<dim>224</dim>
				</port>
			</output>
		</layer>
		<layer id="4" name="Constant_6122_compressed" type="Const" version="opset1">
			<data element_type="f16" shape="1, 3, 1, 1" offset="6" size="6" />
			<output>
				<port id="0" precision="FP16">
					<dim>1</dim>
					<dim>3</dim>
					<dim>1</dim>
					<dim>1</dim>
				</port>
			</output>
		</layer>
		<layer id="5" name="Constant_6122" type="Convert" version="opset1">
			<data destination_type="f32" />
			<rt_info>
				<attribute name="decompression" version="0" />
			</rt_info>
			<input>
				<port id="0" precision="FP16">
					<dim>1</dim>
					<dim>3</dim>
					<dim>1</dim>
					<dim>1</dim>
				</port>
			</input>
			<output>
				<port id="1" precision="FP32">
					<dim>1</dim>
					<dim>3</dim>
					<dim>1</dim>
					<dim>1</dim>
				</port>
			</output>
		</layer>
		<layer id="6" name="Divide_2608" type="Add" version="opset1">
			<data auto_broadcast="numpy" />
			<input>
				<port id="0" precision="FP32">
					<dim>1</dim>
					<dim>3</dim>
					<dim>224</dim>
					<dim>224</dim>
				</port>
				<port id="1" precision="FP32">
					<dim>1</dim>
					<dim>3</dim>
					<dim>1</dim>
					<dim>1</dim>
				</port>
			</input>
			<output>
				<port id="2" precision="FP32">
					<dim>1</dim>
					<dim>3</dim>
					<dim>224</dim>
					<dim>224</dim>
				</port>
			</output>
		</layer>
		<layer id="7" name="Constant_44281_compressed" type="Const" version="opset1">
			<data element_type="f16" shape="" offset="12" size="2" />
			<output>
				<port id="0" precision="FP16" />
			</output>
		</layer>
		<layer id="8" name="Constant_44281" type="Convert" version="opset1">
			<data destination_type="f32" />
			<rt_info>
				<attribute name="decompression" version="0" />
			</rt_info>
			<input>
				<port id="0" precision="FP16" />
			</input>
			<output>
				<port id="1" precision="FP32" />
			</output>
		</layer>
		<layer id="9" name="Constant_44282_compressed" type="Const" version="opset1">
			<data element_type="f16" shape="" offset="14" size="2" />
			<output>
				<port id="0" precision="FP16" />
			</output>
		</layer>
		<layer id="10" name="Constant_44282" type="Convert" version="opset1">
			<data destination_type="f32" />
			<rt_info>
				<attribute name="decompression" version="0" />
			</rt_info>
			<input>
				<port id="0" precision="FP16" />
			</input>
			<output>
				<port id="1" precision="FP32" />
			</output>
		</layer>
		<layer id="11" name="Constant_44283_compressed" type="Const" version="opset1">
			<data element_type="f16" shape="" offset="12" size="2" />
			<output>
				<port id="0" precision="FP16" />
			</output>
		</layer>
		<layer id="12" name="Constant_44283" type="Convert" version="opset1">
			<data destination_type="f32" />
			<rt_info>
				<attribute name="decompression" version="0" />
			</rt_info>
			<input>
				<port id="0" precision="FP16" />
			</input>
			<output>
				<port id="1" precision="FP32" />
			</output>
		</layer>
		<layer id="13" name="Constant_44284_compressed" type="Const" version="opset1">
			<data element_type="f16" shape="" offset="14" size="2" />
			<output>
				<port id="0" precision="FP16" />
			</output>
		</layer>
		<layer id="14" name="Constant_44284" type="Convert" version="opset1">
			<data destination_type="f32" />
			<rt_info>
				<attribute name="decompression" version="0" />
			</rt_info>
			<input>
				<port id="0" precision="FP16" />
			</input>
			<output>
				<port id="1" precision="FP32" />
			</output>
		</layer>
		<layer id="15" name="Divide_2608/fq_output_0" type="FakeQuantize" version="opset1">
			<data levels="256" auto_broadcast="numpy" />
			<input>
				<port id="0" precision="FP32">
					<dim>1</dim>
					<dim>3</dim>
					<dim>224</dim>
					<dim>224</dim>
				</port>
				<port id="1" precision="FP32" />
				<port id="2" precision="FP32" />
				<port id="3" precision="FP32" />
				<port id="4" precision="FP32" />
			</input>
			<output>
				<port id="5" precision="FP32">
					<dim>1</dim>
					<dim>3</dim>
					<dim>224</dim>
					<dim>224</dim>
				</port>
			</output>
		</layer>
		<layer id="16" name="Constant_193103" type="Const" version="opset1">
			<data element_type="i8" shape="32, 3, 3, 3" offset="16" size="864" />
			<output>
				<port id="0" precision="I8">
					<dim>32</dim>
					<dim>3</dim>
					<dim>3</dim>
					<dim>3</dim>
				</port>
			</output>
		</layer>
		<layer id="17" name="Convert_193104" type="Convert" version="opset1">
			<data destination_type="f32" />
			<input>
				<port id="0" precision="I8">
					<dim>32</dim>
					<dim>3</dim>
					<dim>3</dim>
					<dim>3</dim>
				</port>
			</input>
			<output>
				<port id="1" precision="FP32">
					<dim>32</dim>
					<dim>3</dim>
					<dim>3</dim>
					<dim>3</dim>
				</port>
			</output>
		</layer>
		<layer id="18" name="Constant_193105_compressed" type="Const" version="opset1">
			<data element_type="f16" shape="32, 1, 1, 1" offset="880" size="64" />
			<output>
				<port id="0" precision="FP16">
					<dim>32</dim>
					<dim>1</dim>
					<dim>1</dim>
					<dim>1</dim>
				</port>
			</output>
		</layer>
		<layer id="19" name="Constant_193105" type="Convert" version="opset1">
			<data destination_type="f32" />
			<rt_info>
				<attribute name="decompression" version="0" />
			</rt_info>
			<input>
				<port id="0" precision="FP16">
					<dim>32</dim>
					<dim>1</dim>
					<dim>1</dim>
					<dim>1</dim>
				</port>
			</input>
			<output>
				<port id="1" precision="FP32">
					<dim>32</dim>
					<dim>1</dim>
					<dim>1</dim>
					<dim>1</dim>
				</port>
			</output>
		</layer>
		<layer id="20" name="/backbone/features/init_block/conv/conv/Conv/WithoutBiases/fq_weights_1" type="Multiply" version="opset1">
			<data auto_broadcast="numpy" />
			<input>
				<port id="0" precision="FP32">
					<dim>32</dim>
					<dim>3</dim>
					<dim>3</dim>
					<dim>3</dim>
				</port>
				<port id="1" precision="FP32">
					<dim>32</dim>
					<dim>1</dim>
					<dim>1</dim>
					<dim>1</dim>
				</port>
			</input>
			<output>
				<port id="2" precision="FP32">
					<dim>32</dim>
					<dim>3</dim>
					<dim>3</dim>
					<dim>3</dim>
				</port>
			</output>
		</layer>
		<layer id="21" name="/backbone/features/init_block/conv/conv/Conv/WithoutBiases" type="Convolution" version="opset1">
			<data strides="2, 2" dilations="1, 1" pads_begin="1, 1" pads_end="1, 1" auto_pad="explicit" />
			<input>
				<port id="0" precision="FP32">
					<dim>1</dim>
					<dim>3</dim>
					<dim>224</dim>
					<dim>224</dim>
				</port>
				<port id="1" precision="FP32">
					<dim>32</dim>
					<dim>3</dim>
					<dim>3</dim>
					<dim>3</dim>
				</port>
			</input>
			<output>
				<port id="2" precision="FP32">
					<dim>1</dim>
					<dim>32</dim>
					<dim>112</dim>
					<dim>112</dim>
				</port>
			</output>
		</layer>
		<layer id="22" name="Reshape_179_compressed" type="Const" version="opset1">
			<data element_type="f16" shape="1, 32, 1, 1" offset="944" size="64" />
			<output>
				<port id="0" precision="FP16">
					<dim>1</dim>
					<dim>32</dim>
					<dim>1</dim>
					<dim>1</dim>
				</port>
			</output>
		</layer>
		<layer id="23" name="Reshape_179" type="Convert" version="opset1">
			<data destination_type="f32" />
			<rt_info>
				<attribute name="decompression" version="0" />
			</rt_info>
			<input>
				<port id="0" precision="FP16">
					<dim>1</dim>
					<dim>32</dim>
					<dim>1</dim>
					<dim>1</dim>
				</port>
			</input>
			<output>
				<port id="1" precision="FP32">
					<dim>1</dim>
					<dim>32</dim>
					<dim>1</dim>
					<dim>1</dim>
				</port>
			</output>
		</layer>
		<layer id="24" name="/backbone/features/init_block/conv/conv/Conv" type="Add" version="opset1">
			<data auto_broadcast="numpy" />
			<input>
				<port id="0" precision="FP32">
					<dim>1</dim>
					<dim>32</dim>
					<dim>112</dim>
					<dim>112</dim>
				</port>
				<port id="1" precision="FP32">
					<dim>1</dim>
					<dim>32</dim>
					<dim>1</dim>
					<dim>1</dim>
				</port>
			</input>
			<output>
				<port id="2" precision="FP32" names="/backbone/features/init_block/conv/conv/Conv_output_0">
					<dim>1</dim>
					<dim>32</dim>
					<dim>112</dim>
					<dim>112</dim>
				</port>
			</output>
		</layer>
		<layer id="25" name="/backbone/features/init_block/conv/activate/Mul" type="Swish" version="opset4">
			<input>
				<port id="0" precision="FP32">
					<dim>1</dim>
					<dim>32</dim>
					<dim>112</dim>
					<dim>112</dim>
				</port>
			</input>
			<output>
				<port id="1" precision="FP32" names="/backbone/features/init_block/conv/activate/Mul_output_0">
					<dim>1</dim>
					<dim>32</dim>
					<dim>112</dim>
					<dim>112</dim>
				</port>
			</output>
		</layer>
		<layer id="26" name="Constant_44291_compressed" type="Const" version="opset1">
			<data element_type="f16" shape="1, 32, 1, 1" offset="1008" size="64" />
			<output>
				<port id="0" precision="FP16">
					<dim>1</dim>
					<dim>32</dim>
					<dim>1</dim>
					<dim>1</dim>
				</port>
			</output>
		</layer>
		<layer id="27" name="Constant_44291" type="Convert" version="opset1">
			<data destination_type="f32" />
			<rt_info>
				<attribute name="decompression" version="0" />
			</rt_info>
			<input>
				<port id="0" precision="FP16">
					<dim>1</dim>
					<dim>32</dim>
					<dim>1</dim>
					<dim>1</dim>
				</port>
			</input>
			<output>
				<port id="1" precision="FP32">
					<dim>1</dim>
					<dim>32</dim>
					<dim>1</dim>
					<dim>1</dim>
				</port>
			</output>
		</layer>
		<layer id="28" name="Constant_44292_compressed" type="Const" version="opset1">
			<data element_type="f16" shape="1, 32, 1, 1" offset="1072" size="64" />
			<output>
				<port id="0" precision="FP16">
					<dim>1</dim>
					<dim>32</dim>
					<dim>1</dim>
					<dim>1</dim>
				</port>
			</output>
		</layer>
		<layer id="29" name="Constant_44292" type="Convert" version="opset1">
			<data destination_type="f32" />
			<rt_info>
				<attribute name="decompression" version="0" />
			</rt_info>
			<input>
				<port id="0" precision="FP16">
					<dim>1</dim>
					<dim>32</dim>
					<dim>1</dim>
					<dim>1</dim>
				</port>
			</input>
			<output>
				<port id="1" precision="FP32">
					<dim>1</dim>
					<dim>32</dim>
					<dim>1</dim>
					<dim>1</dim>
				</port>
			</output>
		</layer>
		<layer id="30" name="Constant_44293_compressed" type="Const" version="opset1">
			<data element_type="f16" shape="1, 32, 1, 1" offset="1008" size="64" />
			<output>
				<port id="0" precision="FP16">
					<dim>1</dim>
					<dim>32</dim>
					<dim>1</dim>
					<dim>1</dim>
				</port>
			</output>
		</layer>
		<layer id="31" name="Constant_44293" type="Convert" version="opset1">
			<data destination_type="f32" />
			<rt_info>
				<attribute name="decompression" version="0" />
			</rt_info>
			<input>
				<port id="0" precision="FP16">
					<dim>1</dim>
					<dim>32</dim>
					<dim>1</dim>
					<dim>1</dim>
				</port>
			</input>
			<output>
				<port id="1" precision="FP32">
					<dim>1</dim>
					<dim>32</dim>
					<dim>1</dim>
					<dim>1</dim>
				</port>
			</output>
		</layer>
		<layer id="32" name="Constant_44294_compressed" type="Const" version="opset1">
			<data element_type="f16" shape="1, 32, 1, 1" offset="1072" size="64" />
			<output>
				<port id="0" precision="FP16">
					<dim>1</dim>
					<dim>32</dim>
					<dim>1</dim>
					<dim>1</dim>
				</port>
			</output>
		</layer>
		<layer id="33" name="Constant_44294" type="Convert" version="opset1">
			<data destination_type="f32" />
			<rt_info>
				<attribute name="decompression" version="0" />
			</rt_info>
			<input>
				<port id="0" precision="FP16">
					<dim>1</dim>
					<dim>32</dim>
					<dim>1</dim>
					<dim>1</dim>
				</port>
			</input>
			<output>
				<port id="1" precision="FP32">
					<dim>1</dim>
					<dim>32</dim>
					<dim>1</dim>
					<dim>1</dim>
				</port>
			</output>
		</layer>
		<layer id="34" name="/backbone/features/init_block/conv/activate/Mul/fq_output_0" type="FakeQuantize" version="opset1">
			<data levels="256" auto_broadcast="numpy" />
			<input>
				<port id="0" precision="FP32">
					<dim>1</dim>
					<dim>32</dim>
					<dim>112</dim>
					<dim>112</dim>
				</port>
				<port id="1" precision="FP32">
					<dim>1</dim>
					<dim>32</dim>
					<dim>1</dim>
					<dim>1</dim>
				</port>
				<port id="2" precision="FP32">
					<dim>1</dim>
					<dim>32</dim>
					<dim>1</dim>
					<dim>1</dim>
				</port>
				<port id="3" precision="FP32">
					<dim>1</dim>
					<dim>32</dim>
					<dim>1</dim>
					<dim>1</dim>
				</port>
				<port id="4" precision="FP32">
					<dim>1</dim>
					<dim>32</dim>
					<dim>1</dim>
					<dim>1</dim>
				</port>
			</input>
			<output>
				<port id="5" precision="FP32">
					<dim>1</dim>
					<dim>32</dim>
					<dim>112</dim>
					<dim>112</dim>
				</port>
			</output>
		</layer>
		<layer id="35" name="Constant_193107" type="Const" version="opset1">
			<data element_type="i8" shape="32, 1, 1, 3, 3" offset="1136" size="288" />
			<output>
				<port id="0" precision="I8">
					<dim>32</dim>
					<dim>1</dim>
					<dim>1</dim>
					<dim>3</dim>
					<dim>3</dim>
				</port>
			</output>
		</layer>
		<layer id="36" name="Convert_193108" type="Convert" version="opset1">
			<data destination_type="f32" />
			<input>
				<port id="0" precision="I8">
					<dim>32</dim>
					<dim>1</dim>
					<dim>1</dim>
					<dim>3</dim>
					<dim>3</dim>
				</port>
			</input>
			<output>
				<port id="1" precision="FP32">
					<dim>32</dim>
					<dim>1</dim>
					<dim>1</dim>
					<dim>3</dim>
					<dim>3</dim>
				</port>
			</output>
		</layer>
		<layer id="37" name="Constant_193109_compressed" type="Const" version="opset1">
			<data element_type="f16" shape="32, 1, 1, 1, 1" offset="1424" size="64" />
			<output>
				<port id="0" precision="FP16">
					<dim>32</dim>
					<dim>1</dim>
					<dim>1</dim>
					<dim>1</dim>
					<dim>1</dim>
				</port>
			</output>
		</layer>
		<layer id="38" name="Constant_193109" type="Convert" version="opset1">
			<data destination_type="f32" />
			<rt_info>
				<attribute name="decompression" version="0" />
			</rt_info>
			<input>
				<port id="0" precision="FP16">
					<dim>32</dim>
					<dim>1</dim>
					<dim>1</dim>
					<dim>1</dim>
					<dim>1</dim>
				</port>
			</input>
			<output>
				<port id="1" precision="FP32">
					<dim>32</dim>
					<dim>1</dim>
					<dim>1</dim>
					<dim>1</dim>
					<dim>1</dim>
				</port>
			</output>
		</layer>
		<layer id="39" name="/backbone/features/stage1/unit1/dw_conv/conv/Conv/WithoutBiases/fq_weights_1" type="Multiply" version="opset1">
			<data auto_broadcast="numpy" />
			<input>
				<port id="0" precision="FP32">
					<dim>32</dim>
					<dim>1</dim>
					<dim>1</dim>
					<dim>3</dim>
					<dim>3</dim>
				</port>
				<port id="1" precision="FP32">
					<dim>32</dim>
					<dim>1</dim>
					<dim>1</dim>
					<dim>1</dim>
					<dim>1</dim>
				</port>
			</input>
			<output>
				<port id="2" precision="FP32">
					<dim>32</dim>
					<dim>1</dim>
					<dim>1</dim>
					<dim>3</dim>
					<dim>3</dim>
				</port>
			</output>
		</layer>
		<layer id="40" name="/backbone/features/stage1/unit1/dw_conv/conv/Conv/WithoutBiases" type="GroupConvolution" version="opset1">
			<data strides="1, 1" pads_begin="1, 1" pads_end="1, 1" dilations="1, 1" auto_pad="explicit" />
			<input>
				<port id="0" precision="FP32">
					<dim>1</dim>
					<dim>32</dim>
					<dim>112</dim>
					<dim>112</dim>
				</port>
				<port id="1" precision="FP32">
					<dim>32</dim>
					<dim>1</dim>
					<dim>1</dim>
					<dim>3</dim>
					<dim>3</dim>
				</port>
			</input>
			<output>
				<port id="2" precision="FP32">
					<dim>1</dim>
					<dim>32</dim>
					<dim>112</dim>
					<dim>112</dim>
				</port>
			</output>
		</layer>
		<layer id="41" name="Reshape_244_compressed" type="Const" version="opset1">
			<data element_type="f16" shape="1, 32, 1, 1" offset="1488" size="64" />
			<output>
				<port id="0" precision="FP16">
					<dim>1</dim>
					<dim>32</dim>
					<dim>1</dim>
					<dim>1</dim>
				</port>
			</output>
		</layer>
		<layer id="42" name="Reshape_244" type="Convert" version="opset1">
			<data destination_type="f32" />
			<rt_info>
				<attribute name="decompression" version="0" />
			</rt_info>
			<input>
				<port id="0" precision="FP16">
					<dim>1</dim>
					<dim>32</dim>
					<dim>1</dim>
					<dim>1</dim>
				</port>
			</input>
			<output>
				<port id="1" precision="FP32">
					<dim>1</dim>
					<dim>32</dim>
					<dim>1</dim>
					<dim>1</dim>
				</port>
			</output>
		</layer>
		<layer id="43" name="/backbone/features/stage1/unit1/dw_conv/conv/Conv" type="Add" version="opset1">
			<data auto_broadcast="numpy" />
			<input>
				<port id="0" precision="FP32">
					<dim>1</dim>
					<dim>32</dim>
					<dim>112</dim>
					<dim>112</dim>
				</port>
				<port id="1" precision="FP32">
					<dim>1</dim>
					<dim>32</dim>
					<dim>1</dim>
					<dim>1</dim>
				</port>
			</input>
			<output>
				<port id="2" precision="FP32" names="/backbone/features/stage1/unit1/dw_conv/conv/Conv_output_0">
					<dim>1</dim>
					<dim>32</dim>
					<dim>112</dim>
					<dim>112</dim>
				</port>
			</output>
		</layer>
		<layer id="44" name="/backbone/features/stage1/unit1/dw_conv/activate/Mul" type="Swish" version="opset4">
			<input>
				<port id="0" precision="FP32">
					<dim>1</dim>
					<dim>32</dim>
					<dim>112</dim>
					<dim>112</dim>
				</port>
			</input>
			<output>
				<port id="1" precision="FP32" names="/backbone/features/stage1/unit1/dw_conv/activate/Mul_output_0">
					<dim>1</dim>
					<dim>32</dim>
					<dim>112</dim>
					<dim>112</dim>
				</port>
			</output>
		</layer>
		<layer id="45" name="Constant_44301_compressed" type="Const" version="opset1">
			<data element_type="f16" shape="" offset="1552" size="2" />
			<output>
				<port id="0" precision="FP16" />
			</output>
		</layer>
		<layer id="46" name="Constant_44301" type="Convert" version="opset1">
			<data destination_type="f32" />
			<rt_info>
				<attribute name="decompression" version="0" />
			</rt_info>
			<input>
				<port id="0" precision="FP16" />
			</input>
			<output>
				<port id="1" precision="FP32" />
			</output>
		</layer>
		<layer id="47" name="Constant_44302_compressed" type="Const" version="opset1">
			<data element_type="f16" shape="" offset="1554" size="2" />
			<output>
				<port id="0" precision="FP16" />
			</output>
		</layer>
		<layer id="48" name="Constant_44302" type="Convert" version="opset1">
			<data destination_type="f32" />
			<rt_info>
				<attribute name="decompression" version="0" />
			</rt_info>
			<input>
				<port id="0" precision="FP16" />
			</input>
			<output>
				<port id="1" precision="FP32" />
			</output>
		</layer>
		<layer id="49" name="Constant_44303_compressed" type="Const" version="opset1">
			<data element_type="f16" shape="" offset="1552" size="2" />
			<output>
				<port id="0" precision="FP16" />
			</output>
		</layer>
		<layer id="50" name="Constant_44303" type="Convert" version="opset1">
			<data destination_type="f32" />
			<rt_info>
				<attribute name="decompression" version="0" />
			</rt_info>
			<input>
				<port id="0" precision="FP16" />
			</input>
			<output>
				<port id="1" precision="FP32" />
			</output>
		</layer>
		<layer id="51" name="Constant_44304_compressed" type="Const" version="opset1">
			<data element_type="f16" shape="" offset="1554" size="2" />
			<output>
				<port id="0" precision="FP16" />
			</output>
		</layer>
		<layer id="52" name="Constant_44304" type="Convert" version="opset1">
			<data destination_type="f32" />
			<rt_info>
				<attribute name="decompression" version="0" />
			</rt_info>
			<input>
				<port id="0" precision="FP16" />
			</input>
			<output>
				<port id="1" precision="FP32" />
			</output>
		</layer>
		<layer id="53" name="/backbone/features/stage1/unit1/dw_conv/activate/Mul/fq_output_0" type="FakeQuantize" version="opset1">
			<data levels="256" auto_broadcast="numpy" />
			<input>
				<port id="0" precision="FP32">
					<dim>1</dim>
					<dim>32</dim>
					<dim>112</dim>
					<dim>112</dim>
				</port>
				<port id="1" precision="FP32" />
				<port id="2" precision="FP32" />
				<port id="3" precision="FP32" />
				<port id="4" precision="FP32" />
			</input>
			<output>
				<port id="5" precision="FP32">
					<dim>1</dim>
					<dim>32</dim>
					<dim>112</dim>
					<dim>112</dim>
				</port>
			</output>
		</layer>
		<layer id="54" name="Range_256" type="Const" version="opset1">
			<data element_type="i64" shape="2" offset="1556" size="16" />
			<output>
				<port id="0" precision="I64">
					<dim>2</dim>
				</port>
			</output>
		</layer>
		<layer id="55" name="/backbone/features/stage1/unit1/se/pool/GlobalAveragePool" type="ReduceMean" version="opset1">
			<data keep_dims="true" />
			<input>
				<port id="0" precision="FP32">
					<dim>1</dim>
					<dim>32</dim>
					<dim>112</dim>
					<dim>112</dim>
				</port>
				<port id="1" precision="I64">
					<dim>2</dim>
				</port>
			</input>
			<output>
				<port id="2" precision="FP32" names="/backbone/features/stage1/unit1/se/pool/GlobalAveragePool_output_0">
					<dim>1</dim>
					<dim>32</dim>
					<dim>1</dim>
					<dim>1</dim>
				</port>
			</output>
		</layer>
		<layer id="56" name="features.stage1.unit1.se.conv1.weight_compressed" type="Const" version="opset1">
			<data element_type="f16" shape="8, 32, 1, 1" offset="1572" size="512" />
			<output>
				<port id="0" precision="FP16" names="features.stage1.unit1.se.conv1.weight">
					<dim>8</dim>
					<dim>32</dim>
					<dim>1</dim>
					<dim>1</dim>
				</port>
			</output>
		</layer>
		<layer id="57" name="features.stage1.unit1.se.conv1.weight" type="Convert" version="opset1">
			<data destination_type="f32" />
			<rt_info>
				<attribute name="decompression" version="0" />
			</rt_info>
			<input>
				<port id="0" precision="FP16">
					<dim>8</dim>
					<dim>32</dim>
					<dim>1</dim>
					<dim>1</dim>
				</port>
			</input>
			<output>
				<port id="1" precision="FP32">
					<dim>8</dim>
					<dim>32</dim>
					<dim>1</dim>
					<dim>1</dim>
				</port>
			</output>
		</layer>
		<layer id="58" name="/backbone/features/stage1/unit1/se/conv1/Conv/WithoutBiases" type="Convolution" version="opset1">
			<data strides="1, 1" dilations="1, 1" pads_begin="0, 0" pads_end="0, 0" auto_pad="explicit" />
			<input>
				<port id="0" precision="FP32">
					<dim>1</dim>
					<dim>32</dim>
					<dim>1</dim>
					<dim>1</dim>
				</port>
				<port id="1" precision="FP32">
					<dim>8</dim>
					<dim>32</dim>
					<dim>1</dim>
					<dim>1</dim>
				</port>
			</input>
			<output>
				<port id="2" precision="FP32">
					<dim>1</dim>
					<dim>8</dim>
					<dim>1</dim>
					<dim>1</dim>
				</port>
			</output>
		</layer>
		<layer id="59" name="Reshape_274_compressed" type="Const" version="opset1">
			<data element_type="f16" shape="1, 8, 1, 1" offset="2084" size="16" />
			<output>
				<port id="0" precision="FP16">
					<dim>1</dim>
					<dim>8</dim>
					<dim>1</dim>
					<dim>1</dim>
				</port>
			</output>
		</layer>
		<layer id="60" name="Reshape_274" type="Convert" version="opset1">
			<data destination_type="f32" />
			<rt_info>
				<attribute name="decompression" version="0" />
			</rt_info>
			<input>
				<port id="0" precision="FP16">
					<dim>1</dim>
					<dim>8</dim>
					<dim>1</dim>
					<dim>1</dim>
				</port>
			</input>
			<output>
				<port id="1" precision="FP32">
					<dim>1</dim>
					<dim>8</dim>
					<dim>1</dim>
					<dim>1</dim>
				</port>
			</output>
		</layer>
		<layer id="61" name="/backbone/features/stage1/unit1/se/conv1/Conv" type="Add" version="opset1">
			<data auto_broadcast="numpy" />
			<input>
				<port id="0" precision="FP32">
					<dim>1</dim>
					<dim>8</dim>
					<dim>1</dim>
					<dim>1</dim>
				</port>
				<port id="1" precision="FP32">
					<dim>1</dim>
					<dim>8</dim>
					<dim>1</dim>
					<dim>1</dim>
				</port>
			</input>
			<output>
				<port id="2" precision="FP32" names="/backbone/features/stage1/unit1/se/conv1/Conv_output_0">
					<dim>1</dim>
					<dim>8</dim>
					<dim>1</dim>
					<dim>1</dim>
				</port>
			</output>
		</layer>
		<layer id="62" name="/backbone/features/stage1/unit1/se/activ/Mul" type="Swish" version="opset4">
			<input>
				<port id="0" precision="FP32">
					<dim>1</dim>
					<dim>8</dim>
					<dim>1</dim>
					<dim>1</dim>
				</port>
			</input>
			<output>
				<port id="1" precision="FP32" names="/backbone/features/stage1/unit1/se/activ/Mul_output_0">
					<dim>1</dim>
					<dim>8</dim>
					<dim>1</dim>
					<dim>1</dim>
				</port>
			</output>
		</layer>
		<layer id="63" name="features.stage1.unit1.se.conv2.weight_compressed" type="Const" version="opset1">
			<data element_type="f16" shape="32, 8, 1, 1" offset="2100" size="512" />
			<output>
				<port id="0" precision="FP16" names="features.stage1.unit1.se.conv2.weight">
					<dim>32</dim>
					<dim>8</dim>
					<dim>1</dim>
					<dim>1</dim>
				</port>
			</output>
		</layer>
		<layer id="64" name="features.stage1.unit1.se.conv2.weight" type="Convert" version="opset1">
			<data destination_type="f32" />
			<rt_info>
				<attribute name="decompression" version="0" />
			</rt_info>
			<input>
				<port id="0" precision="FP16">
					<dim>32</dim>
					<dim>8</dim>
					<dim>1</dim>
					<dim>1</dim>
				</port>
			</input>
			<output>
				<port id="1" precision="FP32">
					<dim>32</dim>
					<dim>8</dim>
					<dim>1</dim>
					<dim>1</dim>
				</port>
			</output>
		</layer>
		<layer id="65" name="/backbone/features/stage1/unit1/se/conv2/Conv/WithoutBiases" type="Convolution" version="opset1">
			<data strides="1, 1" dilations="1, 1" pads_begin="0, 0" pads_end="0, 0" auto_pad="explicit" />
			<input>
				<port id="0" precision="FP32">
					<dim>1</dim>
					<dim>8</dim>
					<dim>1</dim>
					<dim>1</dim>
				</port>
				<port id="1" precision="FP32">
					<dim>32</dim>
					<dim>8</dim>
					<dim>1</dim>
					<dim>1</dim>
				</port>
			</input>
			<output>
				<port id="2" precision="FP32">
					<dim>1</dim>
					<dim>32</dim>
					<dim>1</dim>
					<dim>1</dim>
				</port>
			</output>
		</layer>
		<layer id="66" name="Reshape_292_compressed" type="Const" version="opset1">
			<data element_type="f16" shape="1, 32, 1, 1" offset="2612" size="64" />
			<output>
				<port id="0" precision="FP16">
					<dim>1</dim>
					<dim>32</dim>
					<dim>1</dim>
					<dim>1</dim>
				</port>
			</output>
		</layer>
		<layer id="67" name="Reshape_292" type="Convert" version="opset1">
			<data destination_type="f32" />
			<rt_info>
				<attribute name="decompression" version="0" />
			</rt_info>
			<input>
				<port id="0" precision="FP16">
					<dim>1</dim>
					<dim>32</dim>
					<dim>1</dim>
					<dim>1</dim>
				</port>
			</input>
			<output>
				<port id="1" precision="FP32">
					<dim>1</dim>
					<dim>32</dim>
					<dim>1</dim>
					<dim>1</dim>
				</port>
			</output>
		</layer>
		<layer id="68" name="/backbone/features/stage1/unit1/se/conv2/Conv" type="Add" version="opset1">
			<data auto_broadcast="numpy" />
			<input>
				<port id="0" precision="FP32">
					<dim>1</dim>
					<dim>32</dim>
					<dim>1</dim>
					<dim>1</dim>
				</port>
				<port id="1" precision="FP32">
					<dim>1</dim>
					<dim>32</dim>
					<dim>1</dim>
					<dim>1</dim>
				</port>
			</input>
			<output>
				<port id="2" precision="FP32" names="/backbone/features/stage1/unit1/se/conv2/Conv_output_0">
					<dim>1</dim>
					<dim>32</dim>
					<dim>1</dim>
					<dim>1</dim>
				</port>
			</output>
		</layer>
		<layer id="69" name="/backbone/features/stage1/unit1/se/sigmoid/Sigmoid" type="Sigmoid" version="opset1">
			<input>
				<port id="0" precision="FP32">
					<dim>1</dim>
					<dim>32</dim>
					<dim>1</dim>
					<dim>1</dim>
				</port>
			</input>
			<output>
				<port id="1" precision="FP32" names="/backbone/features/stage1/unit1/se/sigmoid/Sigmoid_output_0">
					<dim>1</dim>
					<dim>32</dim>
					<dim>1</dim>
					<dim>1</dim>
				</port>
			</output>
		</layer>
		<layer id="70" name="Constant_44306_compressed" type="Const" version="opset1">
			<data element_type="f16" shape="" offset="2676" size="2" />
			<output>
				<port id="0" precision="FP16" />
			</output>
		</layer>
		<layer id="71" name="Constant_44306" type="Convert" version="opset1">
			<data destination_type="f32" />
			<rt_info>
				<attribute name="decompression" version="0" />
			</rt_info>
			<input>
				<port id="0" precision="FP16" />
			</input>
			<output>
				<port id="1" precision="FP32" />
			</output>
		</layer>
		<layer id="72" name="Constant_44307_compressed" type="Const" version="opset1">
			<data element_type="f16" shape="" offset="2678" size="2" />
			<output>
				<port id="0" precision="FP16" />
			</output>
		</layer>
		<layer id="73" name="Constant_44307" type="Convert" version="opset1">
			<data destination_type="f32" />
			<rt_info>
				<attribute name="decompression" version="0" />
			</rt_info>
			<input>
				<port id="0" precision="FP16" />
			</input>
			<output>
				<port id="1" precision="FP32" />
			</output>
		</layer>
		<layer id="74" name="Constant_44308_compressed" type="Const" version="opset1">
			<data element_type="f16" shape="" offset="2676" size="2" />
			<output>
				<port id="0" precision="FP16" />
			</output>
		</layer>
		<layer id="75" name="Constant_44308" type="Convert" version="opset1">
			<data destination_type="f32" />
			<rt_info>
				<attribute name="decompression" version="0" />
			</rt_info>
			<input>
				<port id="0" precision="FP16" />
			</input>
			<output>
				<port id="1" precision="FP32" />
			</output>
		</layer>
		<layer id="76" name="Constant_44309_compressed" type="Const" version="opset1">
			<data element_type="f16" shape="" offset="2678" size="2" />
			<output>
				<port id="0" precision="FP16" />
			</output>
		</layer>
		<layer id="77" name="Constant_44309" type="Convert" version="opset1">
			<data destination_type="f32" />
			<rt_info>
				<attribute name="decompression" version="0" />
			</rt_info>
			<input>
				<port id="0" precision="FP16" />
			</input>
			<output>
				<port id="1" precision="FP32" />
			</output>
		</layer>
		<layer id="78" name="/backbone/features/stage1/unit1/se/sigmoid/Sigmoid/fq_output_0" type="FakeQuantize" version="opset1">
			<data levels="256" auto_broadcast="numpy" />
			<input>
				<port id="0" precision="FP32">
					<dim>1</dim>
					<dim>32</dim>
					<dim>1</dim>
					<dim>1</dim>
				</port>
				<port id="1" precision="FP32" />
				<port id="2" precision="FP32" />
				<port id="3" precision="FP32" />
				<port id="4" precision="FP32" />
			</input>
			<output>
				<port id="5" precision="FP32">
					<dim>1</dim>
					<dim>32</dim>
					<dim>1</dim>
					<dim>1</dim>
				</port>
			</output>
		</layer>
		<layer id="79" name="/backbone/features/stage1/unit1/se/Mul" type="Multiply" version="opset1">
			<data auto_broadcast="numpy" />
			<input>
				<port id="0" precision="FP32">
					<dim>1</dim>
					<dim>32</dim>
					<dim>112</dim>
					<dim>112</dim>
				</port>
				<port id="1" precision="FP32">
					<dim>1</dim>
					<dim>32</dim>
					<dim>1</dim>
					<dim>1</dim>
				</port>
			</input>
			<output>
				<port id="2" precision="FP32" names="/backbone/features/stage1/unit1/se/Mul_output_0">
					<dim>1</dim>
					<dim>32</dim>
					<dim>112</dim>
					<dim>112</dim>
				</port>
			</output>
		</layer>
		<layer id="80" name="Constant_44311_compressed" type="Const" version="opset1">
			<data element_type="f16" shape="" offset="2680" size="2" />
			<output>
				<port id="0" precision="FP16" />
			</output>
		</layer>
		<layer id="81" name="Constant_44311" type="Convert" version="opset1">
			<data destination_type="f32" />
			<rt_info>
				<attribute name="decompression" version="0" />
			</rt_info>
			<input>
				<port id="0" precision="FP16" />
			</input>
			<output>
				<port id="1" precision="FP32" />
			</output>
		</layer>
		<layer id="82" name="Constant_44312_compressed" type="Const" version="opset1">
			<data element_type="f16" shape="" offset="2682" size="2" />
			<output>
				<port id="0" precision="FP16" />
			</output>
		</layer>
		<layer id="83" name="Constant_44312" type="Convert" version="opset1">
			<data destination_type="f32" />
			<rt_info>
				<attribute name="decompression" version="0" />
			</rt_info>
			<input>
				<port id="0" precision="FP16" />
			</input>
			<output>
				<port id="1" precision="FP32" />
			</output>
		</layer>
		<layer id="84" name="Constant_44313_compressed" type="Const" version="opset1">
			<data element_type="f16" shape="" offset="2680" size="2" />
			<output>
				<port id="0" precision="FP16" />
			</output>
		</layer>
		<layer id="85" name="Constant_44313" type="Convert" version="opset1">
			<data destination_type="f32" />
			<rt_info>
				<attribute name="decompression" version="0" />
			</rt_info>
			<input>
				<port id="0" precision="FP16" />
			</input>
			<output>
				<port id="1" precision="FP32" />
			</output>
		</layer>
		<layer id="86" name="Constant_44314_compressed" type="Const" version="opset1">
			<data element_type="f16" shape="" offset="2682" size="2" />
			<output>
				<port id="0" precision="FP16" />
			</output>
		</layer>
		<layer id="87" name="Constant_44314" type="Convert" version="opset1">
			<data destination_type="f32" />
			<rt_info>
				<attribute name="decompression" version="0" />
			</rt_info>
			<input>
				<port id="0" precision="FP16" />
			</input>
			<output>
				<port id="1" precision="FP32" />
			</output>
		</layer>
		<layer id="88" name="/backbone/features/stage1/unit1/se/Mul/fq_output_0" type="FakeQuantize" version="opset1">
			<data levels="256" auto_broadcast="numpy" />
			<input>
				<port id="0" precision="FP32">
					<dim>1</dim>
					<dim>32</dim>
					<dim>112</dim>
					<dim>112</dim>
				</port>
				<port id="1" precision="FP32" />
				<port id="2" precision="FP32" />
				<port id="3" precision="FP32" />
				<port id="4" precision="FP32" />
			</input>
			<output>
				<port id="5" precision="FP32">
					<dim>1</dim>
					<dim>32</dim>
					<dim>112</dim>
					<dim>112</dim>
				</port>
			</output>
		</layer>
		<layer id="89" name="Constant_193111" type="Const" version="opset1">
			<data element_type="i8" shape="16, 32, 1, 1" offset="2684" size="512" />
			<output>
				<port id="0" precision="I8">
					<dim>16</dim>
					<dim>32</dim>
					<dim>1</dim>
					<dim>1</dim>
				</port>
			</output>
		</layer>
		<layer id="90" name="Convert_193112" type="Convert" version="opset1">
			<data destination_type="f32" />
			<input>
				<port id="0" precision="I8">
					<dim>16</dim>
					<dim>32</dim>
					<dim>1</dim>
					<dim>1</dim>
				</port>
			</input>
			<output>
				<port id="1" precision="FP32">
					<dim>16</dim>
					<dim>32</dim>
					<dim>1</dim>
					<dim>1</dim>
				</port>
			</output>
		</layer>
		<layer id="91" name="Constant_193113_compressed" type="Const" version="opset1">
			<data element_type="f16" shape="16, 1, 1, 1" offset="3196" size="32" />
			<output>
				<port id="0" precision="FP16">
					<dim>16</dim>
					<dim>1</dim>
					<dim>1</dim>
					<dim>1</dim>
				</port>
			</output>
		</layer>
		<layer id="92" name="Constant_193113" type="Convert" version="opset1">
			<data destination_type="f32" />
			<rt_info>
				<attribute name="decompression" version="0" />
			</rt_info>
			<input>
				<port id="0" precision="FP16">
					<dim>16</dim>
					<dim>1</dim>
					<dim>1</dim>
					<dim>1</dim>
				</port>
			</input>
			<output>
				<port id="1" precision="FP32">
					<dim>16</dim>
					<dim>1</dim>
					<dim>1</dim>
					<dim>1</dim>
				</port>
			</output>
		</layer>
		<layer id="93" name="/backbone/features/stage1/unit1/pw_conv/conv/Conv/WithoutBiases/fq_weights_1" type="Multiply" version="opset1">
			<data auto_broadcast="numpy" />
			<input>
				<port id="0" precision="FP32">
					<dim>16</dim>
					<dim>32</dim>
					<dim>1</dim>
					<dim>1</dim>
				</port>
				<port id="1" precision="FP32">
					<dim>16</dim>
					<dim>1</dim>
					<dim>1</dim>
					<dim>1</dim>
				</port>
			</input>
			<output>
				<port id="2" precision="FP32">
					<dim>16</dim>
					<dim>32</dim>
					<dim>1</dim>
					<dim>1</dim>
				</port>
			</output>
		</layer>
		<layer id="94" name="/backbone/features/stage1/unit1/pw_conv/conv/Conv/WithoutBiases" type="Convolution" version="opset1">
			<data strides="1, 1" dilations="1, 1" pads_begin="0, 0" pads_end="0, 0" auto_pad="explicit" />
			<input>
				<port id="0" precision="FP32">
					<dim>1</dim>
					<dim>32</dim>
					<dim>112</dim>
					<dim>112</dim>
				</port>
				<port id="1" precision="FP32">
					<dim>16</dim>
					<dim>32</dim>
					<dim>1</dim>
					<dim>1</dim>
				</port>
			</input>
			<output>
				<port id="2" precision="FP32">
					<dim>1</dim>
					<dim>16</dim>
					<dim>112</dim>
					<dim>112</dim>
				</port>
			</output>
		</layer>
		<layer id="95" name="Reshape_310_compressed" type="Const" version="opset1">
			<data element_type="f16" shape="1, 16, 1, 1" offset="3228" size="32" />
			<output>
				<port id="0" precision="FP16">
					<dim>1</dim>
					<dim>16</dim>
					<dim>1</dim>
					<dim>1</dim>
				</port>
			</output>
		</layer>
		<layer id="96" name="Reshape_310" type="Convert" version="opset1">
			<data destination_type="f32" />
			<rt_info>
				<attribute name="decompression" version="0" />
			</rt_info>
			<input>
				<port id="0" precision="FP16">
					<dim>1</dim>
					<dim>16</dim>
					<dim>1</dim>
					<dim>1</dim>
				</port>
			</input>
			<output>
				<port id="1" precision="FP32">
					<dim>1</dim>
					<dim>16</dim>
					<dim>1</dim>
					<dim>1</dim>
				</port>
			</output>
		</layer>
		<layer id="97" name="/backbone/features/stage1/unit1/pw_conv/conv/Conv" type="Add" version="opset1">
			<data auto_broadcast="numpy" />
			<input>
				<port id="0" precision="FP32">
					<dim>1</dim>
					<dim>16</dim>
					<dim>112</dim>
					<dim>112</dim>
				</port>
				<port id="1" precision="FP32">
					<dim>1</dim>
					<dim>16</dim>
					<dim>1</dim>
					<dim>1</dim>
				</port>
			</input>
			<output>
				<port id="2" precision="FP32" names="/backbone/features/stage1/unit1/pw_conv/conv/Conv_output_0">
					<dim>1</dim>
					<dim>16</dim>
					<dim>112</dim>
					<dim>112</dim>
				</port>
			</output>
		</layer>
		<layer id="98" name="Constant_44321_compressed" type="Const" version="opset1">
			<data element_type="f16" shape="" offset="3260" size="2" />
			<output>
				<port id="0" precision="FP16" />
			</output>
		</layer>
		<layer id="99" name="Constant_44321" type="Convert" version="opset1">
			<data destination_type="f32" />
			<rt_info>
				<attribute name="decompression" version="0" />
			</rt_info>
			<input>
				<port id="0" precision="FP16" />
			</input>
			<output>
				<port id="1" precision="FP32" />
			</output>
		</layer>
		<layer id="100" name="Constant_44322_compressed" type="Const" version="opset1">
			<data element_type="f16" shape="" offset="3262" size="2" />
			<output>
				<port id="0" precision="FP16" />
			</output>
		</layer>
		<layer id="101" name="Constant_44322" type="Convert" version="opset1">
			<data destination_type="f32" />
			<rt_info>
				<attribute name="decompression" version="0" />
			</rt_info>
			<input>
				<port id="0" precision="FP16" />
			</input>
			<output>
				<port id="1" precision="FP32" />
			</output>
		</layer>
		<layer id="102" name="Constant_44323_compressed" type="Const" version="opset1">
			<data element_type="f16" shape="" offset="3260" size="2" />
			<output>
				<port id="0" precision="FP16" />
			</output>
		</layer>
		<layer id="103" name="Constant_44323" type="Convert" version="opset1">
			<data destination_type="f32" />
			<rt_info>
				<attribute name="decompression" version="0" />
			</rt_info>
			<input>
				<port id="0" precision="FP16" />
			</input>
			<output>
				<port id="1" precision="FP32" />
			</output>
		</layer>
		<layer id="104" name="Constant_44324_compressed" type="Const" version="opset1">
			<data element_type="f16" shape="" offset="3262" size="2" />
			<output>
				<port id="0" precision="FP16" />
			</output>
		</layer>
		<layer id="105" name="Constant_44324" type="Convert" version="opset1">
			<data destination_type="f32" />
			<rt_info>
				<attribute name="decompression" version="0" />
			</rt_info>
			<input>
				<port id="0" precision="FP16" />
			</input>
			<output>
				<port id="1" precision="FP32" />
			</output>
		</layer>
		<layer id="106" name="/backbone/features/stage1/unit1/pw_conv/conv/Conv/fq_output_0" type="FakeQuantize" version="opset1">
			<data levels="256" auto_broadcast="numpy" />
			<input>
				<port id="0" precision="FP32">
					<dim>1</dim>
					<dim>16</dim>
					<dim>112</dim>
					<dim>112</dim>
				</port>
				<port id="1" precision="FP32" />
				<port id="2" precision="FP32" />
				<port id="3" precision="FP32" />
				<port id="4" precision="FP32" />
			</input>
			<output>
				<port id="5" precision="FP32">
					<dim>1</dim>
					<dim>16</dim>
					<dim>112</dim>
					<dim>112</dim>
				</port>
			</output>
		</layer>
		<layer id="107" name="Constant_193115" type="Const" version="opset1">
			<data element_type="i8" shape="96, 16, 1, 1" offset="3264" size="1536" />
			<output>
				<port id="0" precision="I8">
					<dim>96</dim>
					<dim>16</dim>
					<dim>1</dim>
					<dim>1</dim>
				</port>
			</output>
		</layer>
		<layer id="108" name="Convert_193116" type="Convert" version="opset1">
			<data destination_type="f32" />
			<input>
				<port id="0" precision="I8">
					<dim>96</dim>
					<dim>16</dim>
					<dim>1</dim>
					<dim>1</dim>
				</port>
			</input>
			<output>
				<port id="1" precision="FP32">
					<dim>96</dim>
					<dim>16</dim>
					<dim>1</dim>
					<dim>1</dim>
				</port>
			</output>
		</layer>
		<layer id="109" name="Constant_193117_compressed" type="Const" version="opset1">
			<data element_type="f16" shape="96, 1, 1, 1" offset="4800" size="192" />
			<output>
				<port id="0" precision="FP16">
					<dim>96</dim>
					<dim>1</dim>
					<dim>1</dim>
					<dim>1</dim>
				</port>
			</output>
		</layer>
		<layer id="110" name="Constant_193117" type="Convert" version="opset1">
			<data destination_type="f32" />
			<rt_info>
				<attribute name="decompression" version="0" />
			</rt_info>
			<input>
				<port id="0" precision="FP16">
					<dim>96</dim>
					<dim>1</dim>
					<dim>1</dim>
					<dim>1</dim>
				</port>
			</input>
			<output>
				<port id="1" precision="FP32">
					<dim>96</dim>
					<dim>1</dim>
					<dim>1</dim>
					<dim>1</dim>
				</port>
			</output>
		</layer>
		<layer id="111" name="/backbone/features/stage2/unit1/conv1/conv/Conv/WithoutBiases/fq_weights_1" type="Multiply" version="opset1">
			<data auto_broadcast="numpy" />
			<input>
				<port id="0" precision="FP32">
					<dim>96</dim>
					<dim>16</dim>
					<dim>1</dim>
					<dim>1</dim>
				</port>
				<port id="1" precision="FP32">
					<dim>96</dim>
					<dim>1</dim>
					<dim>1</dim>
					<dim>1</dim>
				</port>
			</input>
			<output>
				<port id="2" precision="FP32">
					<dim>96</dim>
					<dim>16</dim>
					<dim>1</dim>
					<dim>1</dim>
				</port>
			</output>
		</layer>
		<layer id="112" name="/backbone/features/stage2/unit1/conv1/conv/Conv/WithoutBiases" type="Convolution" version="opset1">
			<data strides="1, 1" dilations="1, 1" pads_begin="0, 0" pads_end="0, 0" auto_pad="explicit" />
			<input>
				<port id="0" precision="FP32">
					<dim>1</dim>
					<dim>16</dim>
					<dim>112</dim>
					<dim>112</dim>
				</port>
				<port id="1" precision="FP32">
					<dim>96</dim>
					<dim>16</dim>
					<dim>1</dim>
					<dim>1</dim>
				</port>
			</input>
			<output>
				<port id="2" precision="FP32">
					<dim>1</dim>
					<dim>96</dim>
					<dim>112</dim>
					<dim>112</dim>
				</port>
			</output>
		</layer>
		<layer id="113" name="Reshape_326_compressed" type="Const" version="opset1">
			<data element_type="f16" shape="1, 96, 1, 1" offset="4992" size="192" />
			<output>
				<port id="0" precision="FP16">
					<dim>1</dim>
					<dim>96</dim>
					<dim>1</dim>
					<dim>1</dim>
				</port>
			</output>
		</layer>
		<layer id="114" name="Reshape_326" type="Convert" version="opset1">
			<data destination_type="f32" />
			<rt_info>
				<attribute name="decompression" version="0" />
			</rt_info>
			<input>
				<port id="0" precision="FP16">
					<dim>1</dim>
					<dim>96</dim>
					<dim>1</dim>
					<dim>1</dim>
				</port>
			</input>
			<output>
				<port id="1" precision="FP32">
					<dim>1</dim>
					<dim>96</dim>
					<dim>1</dim>
					<dim>1</dim>
				</port>
			</output>
		</layer>
		<layer id="115" name="/backbone/features/stage2/unit1/conv1/conv/Conv" type="Add" version="opset1">
			<data auto_broadcast="numpy" />
			<input>
				<port id="0" precision="FP32">
					<dim>1</dim>
					<dim>96</dim>
					<dim>112</dim>
					<dim>112</dim>
				</port>
				<port id="1" precision="FP32">
					<dim>1</dim>
					<dim>96</dim>
					<dim>1</dim>
					<dim>1</dim>
				</port>
			</input>
			<output>
				<port id="2" precision="FP32" names="/backbone/features/stage2/unit1/conv1/conv/Conv_output_0">
					<dim>1</dim>
					<dim>96</dim>
					<dim>112</dim>
					<dim>112</dim>
				</port>
			</output>
		</layer>
		<layer id="116" name="/backbone/features/stage2/unit1/conv1/activate/Mul" type="Swish" version="opset4">
			<input>
				<port id="0" precision="FP32">
					<dim>1</dim>
					<dim>96</dim>
					<dim>112</dim>
					<dim>112</dim>
				</port>
			</input>
			<output>
				<port id="1" precision="FP32" names="/backbone/features/stage2/unit1/conv1/activate/Mul_output_0">
					<dim>1</dim>
					<dim>96</dim>
					<dim>112</dim>
					<dim>112</dim>
				</port>
			</output>
		</layer>
		<layer id="117" name="Constant_44331_compressed" type="Const" version="opset1">
			<data element_type="f16" shape="1, 96, 1, 1" offset="5184" size="192" />
			<output>
				<port id="0" precision="FP16">
					<dim>1</dim>
					<dim>96</dim>
					<dim>1</dim>
					<dim>1</dim>
				</port>
			</output>
		</layer>
		<layer id="118" name="Constant_44331" type="Convert" version="opset1">
			<data destination_type="f32" />
			<rt_info>
				<attribute name="decompression" version="0" />
			</rt_info>
			<input>
				<port id="0" precision="FP16">
					<dim>1</dim>
					<dim>96</dim>
					<dim>1</dim>
					<dim>1</dim>
				</port>
			</input>
			<output>
				<port id="1" precision="FP32">
					<dim>1</dim>
					<dim>96</dim>
					<dim>1</dim>
					<dim>1</dim>
				</port>
			</output>
		</layer>
		<layer id="119" name="Constant_44332_compressed" type="Const" version="opset1">
			<data element_type="f16" shape="1, 96, 1, 1" offset="5376" size="192" />
			<output>
				<port id="0" precision="FP16">
					<dim>1</dim>
					<dim>96</dim>
					<dim>1</dim>
					<dim>1</dim>
				</port>
			</output>
		</layer>
		<layer id="120" name="Constant_44332" type="Convert" version="opset1">
			<data destination_type="f32" />
			<rt_info>
				<attribute name="decompression" version="0" />
			</rt_info>
			<input>
				<port id="0" precision="FP16">
					<dim>1</dim>
					<dim>96</dim>
					<dim>1</dim>
					<dim>1</dim>
				</port>
			</input>
			<output>
				<port id="1" precision="FP32">
					<dim>1</dim>
					<dim>96</dim>
					<dim>1</dim>
					<dim>1</dim>
				</port>
			</output>
		</layer>
		<layer id="121" name="Constant_44333_compressed" type="Const" version="opset1">
			<data element_type="f16" shape="1, 96, 1, 1" offset="5184" size="192" />
			<output>
				<port id="0" precision="FP16">
					<dim>1</dim>
					<dim>96</dim>
					<dim>1</dim>
					<dim>1</dim>
				</port>
			</output>
		</layer>
		<layer id="122" name="Constant_44333" type="Convert" version="opset1">
			<data destination_type="f32" />
			<rt_info>
				<attribute name="decompression" version="0" />
			</rt_info>
			<input>
				<port id="0" precision="FP16">
					<dim>1</dim>
					<dim>96</dim>
					<dim>1</dim>
					<dim>1</dim>
				</port>
			</input>
			<output>
				<port id="1" precision="FP32">
					<dim>1</dim>
					<dim>96</dim>
					<dim>1</dim>
					<dim>1</dim>
				</port>
			</output>
		</layer>
		<layer id="123" name="Constant_44334_compressed" type="Const" version="opset1">
			<data element_type="f16" shape="1, 96, 1, 1" offset="5376" size="192" />
			<output>
				<port id="0" precision="FP16">
					<dim>1</dim>
					<dim>96</dim>
					<dim>1</dim>
					<dim>1</dim>
				</port>
			</output>
		</layer>
		<layer id="124" name="Constant_44334" type="Convert" version="opset1">
			<data destination_type="f32" />
			<rt_info>
				<attribute name="decompression" version="0" />
			</rt_info>
			<input>
				<port id="0" precision="FP16">
					<dim>1</dim>
					<dim>96</dim>
					<dim>1</dim>
					<dim>1</dim>
				</port>
			</input>
			<output>
				<port id="1" precision="FP32">
					<dim>1</dim>
					<dim>96</dim>
					<dim>1</dim>
					<dim>1</dim>
				</port>
			</output>
		</layer>
		<layer id="125" name="/backbone/features/stage2/unit1/conv1/activate/Mul/fq_output_0" type="FakeQuantize" version="opset1">
			<data levels="256" auto_broadcast="numpy" />
			<input>
				<port id="0" precision="FP32">
					<dim>1</dim>
					<dim>96</dim>
					<dim>112</dim>
					<dim>112</dim>
				</port>
				<port id="1" precision="FP32">
					<dim>1</dim>
					<dim>96</dim>
					<dim>1</dim>
					<dim>1</dim>
				</port>
				<port id="2" precision="FP32">
					<dim>1</dim>
					<dim>96</dim>
					<dim>1</dim>
					<dim>1</dim>
				</port>
				<port id="3" precision="FP32">
					<dim>1</dim>
					<dim>96</dim>
					<dim>1</dim>
					<dim>1</dim>
				</port>
				<port id="4" precision="FP32">
					<dim>1</dim>
					<dim>96</dim>
					<dim>1</dim>
					<dim>1</dim>
				</port>
			</input>
			<output>
				<port id="5" precision="FP32">
					<dim>1</dim>
					<dim>96</dim>
					<dim>112</dim>
					<dim>112</dim>
				</port>
			</output>
		</layer>
		<layer id="126" name="Constant_193119" type="Const" version="opset1">
			<data element_type="i8" shape="96, 1, 1, 3, 3" offset="5568" size="864" />
			<output>
				<port id="0" precision="I8">
					<dim>96</dim>
					<dim>1</dim>
					<dim>1</dim>
					<dim>3</dim>
					<dim>3</dim>
				</port>
			</output>
		</layer>
		<layer id="127" name="Convert_193120" type="Convert" version="opset1">
			<data destination_type="f32" />
			<input>
				<port id="0" precision="I8">
					<dim>96</dim>
					<dim>1</dim>
					<dim>1</dim>
					<dim>3</dim>
					<dim>3</dim>
				</port>
			</input>
			<output>
				<port id="1" precision="FP32">
					<dim>96</dim>
					<dim>1</dim>
					<dim>1</dim>
					<dim>3</dim>
					<dim>3</dim>
				</port>
			</output>
		</layer>
		<layer id="128" name="Constant_193121_compressed" type="Const" version="opset1">
			<data element_type="f16" shape="96, 1, 1, 1, 1" offset="6432" size="192" />
			<output>
				<port id="0" precision="FP16">
					<dim>96</dim>
					<dim>1</dim>
					<dim>1</dim>
					<dim>1</dim>
					<dim>1</dim>
				</port>
			</output>
		</layer>
		<layer id="129" name="Constant_193121" type="Convert" version="opset1">
			<data destination_type="f32" />
			<rt_info>
				<attribute name="decompression" version="0" />
			</rt_info>
			<input>
				<port id="0" precision="FP16">
					<dim>96</dim>
					<dim>1</dim>
					<dim>1</dim>
					<dim>1</dim>
					<dim>1</dim>
				</port>
			</input>
			<output>
				<port id="1" precision="FP32">
					<dim>96</dim>
					<dim>1</dim>
					<dim>1</dim>
					<dim>1</dim>
					<dim>1</dim>
				</port>
			</output>
		</layer>
		<layer id="130" name="/backbone/features/stage2/unit1/conv2/conv/Conv/WithoutBiases/fq_weights_1" type="Multiply" version="opset1">
			<data auto_broadcast="numpy" />
			<input>
				<port id="0" precision="FP32">
					<dim>96</dim>
					<dim>1</dim>
					<dim>1</dim>
					<dim>3</dim>
					<dim>3</dim>
				</port>
				<port id="1" precision="FP32">
					<dim>96</dim>
					<dim>1</dim>
					<dim>1</dim>
					<dim>1</dim>
					<dim>1</dim>
				</port>
			</input>
			<output>
				<port id="2" precision="FP32">
					<dim>96</dim>
					<dim>1</dim>
					<dim>1</dim>
					<dim>3</dim>
					<dim>3</dim>
				</port>
			</output>
		</layer>
		<layer id="131" name="/backbone/features/stage2/unit1/conv2/conv/Conv/WithoutBiases" type="GroupConvolution" version="opset1">
			<data strides="2, 2" pads_begin="1, 1" pads_end="1, 1" dilations="1, 1" auto_pad="explicit" />
			<input>
				<port id="0" precision="FP32">
					<dim>1</dim>
					<dim>96</dim>
					<dim>112</dim>
					<dim>112</dim>
				</port>
				<port id="1" precision="FP32">
					<dim>96</dim>
					<dim>1</dim>
					<dim>1</dim>
					<dim>3</dim>
					<dim>3</dim>
				</port>
			</input>
			<output>
				<port id="2" precision="FP32">
					<dim>1</dim>
					<dim>96</dim>
					<dim>56</dim>
					<dim>56</dim>
				</port>
			</output>
		</layer>
		<layer id="132" name="Reshape_391_compressed" type="Const" version="opset1">
			<data element_type="f16" shape="1, 96, 1, 1" offset="6624" size="192" />
			<output>
				<port id="0" precision="FP16">
					<dim>1</dim>
					<dim>96</dim>
					<dim>1</dim>
					<dim>1</dim>
				</port>
			</output>
		</layer>
		<layer id="133" name="Reshape_391" type="Convert" version="opset1">
			<data destination_type="f32" />
			<rt_info>
				<attribute name="decompression" version="0" />
			</rt_info>
			<input>
				<port id="0" precision="FP16">
					<dim>1</dim>
					<dim>96</dim>
					<dim>1</dim>
					<dim>1</dim>
				</port>
			</input>
			<output>
				<port id="1" precision="FP32">
					<dim>1</dim>
					<dim>96</dim>
					<dim>1</dim>
					<dim>1</dim>
				</port>
			</output>
		</layer>
		<layer id="134" name="/backbone/features/stage2/unit1/conv2/conv/Conv" type="Add" version="opset1">
			<data auto_broadcast="numpy" />
			<input>
				<port id="0" precision="FP32">
					<dim>1</dim>
					<dim>96</dim>
					<dim>56</dim>
					<dim>56</dim>
				</port>
				<port id="1" precision="FP32">
					<dim>1</dim>
					<dim>96</dim>
					<dim>1</dim>
					<dim>1</dim>
				</port>
			</input>
			<output>
				<port id="2" precision="FP32" names="/backbone/features/stage2/unit1/conv2/conv/Conv_output_0">
					<dim>1</dim>
					<dim>96</dim>
					<dim>56</dim>
					<dim>56</dim>
				</port>
			</output>
		</layer>
		<layer id="135" name="/backbone/features/stage2/unit1/conv2/activate/Mul" type="Swish" version="opset4">
			<input>
				<port id="0" precision="FP32">
					<dim>1</dim>
					<dim>96</dim>
					<dim>56</dim>
					<dim>56</dim>
				</port>
			</input>
			<output>
				<port id="1" precision="FP32" names="/backbone/features/stage2/unit1/conv2/activate/Mul_output_0">
					<dim>1</dim>
					<dim>96</dim>
					<dim>56</dim>
					<dim>56</dim>
				</port>
			</output>
		</layer>
		<layer id="136" name="Constant_44341_compressed" type="Const" version="opset1">
			<data element_type="f16" shape="" offset="6816" size="2" />
			<output>
				<port id="0" precision="FP16" />
			</output>
		</layer>
		<layer id="137" name="Constant_44341" type="Convert" version="opset1">
			<data destination_type="f32" />
			<rt_info>
				<attribute name="decompression" version="0" />
			</rt_info>
			<input>
				<port id="0" precision="FP16" />
			</input>
			<output>
				<port id="1" precision="FP32" />
			</output>
		</layer>
		<layer id="138" name="Constant_44342_compressed" type="Const" version="opset1">
			<data element_type="f16" shape="" offset="6818" size="2" />
			<output>
				<port id="0" precision="FP16" />
			</output>
		</layer>
		<layer id="139" name="Constant_44342" type="Convert" version="opset1">
			<data destination_type="f32" />
			<rt_info>
				<attribute name="decompression" version="0" />
			</rt_info>
			<input>
				<port id="0" precision="FP16" />
			</input>
			<output>
				<port id="1" precision="FP32" />
			</output>
		</layer>
		<layer id="140" name="Constant_44343_compressed" type="Const" version="opset1">
			<data element_type="f16" shape="" offset="6816" size="2" />
			<output>
				<port id="0" precision="FP16" />
			</output>
		</layer>
		<layer id="141" name="Constant_44343" type="Convert" version="opset1">
			<data destination_type="f32" />
			<rt_info>
				<attribute name="decompression" version="0" />
			</rt_info>
			<input>
				<port id="0" precision="FP16" />
			</input>
			<output>
				<port id="1" precision="FP32" />
			</output>
		</layer>
		<layer id="142" name="Constant_44344_compressed" type="Const" version="opset1">
			<data element_type="f16" shape="" offset="6818" size="2" />
			<output>
				<port id="0" precision="FP16" />
			</output>
		</layer>
		<layer id="143" name="Constant_44344" type="Convert" version="opset1">
			<data destination_type="f32" />
			<rt_info>
				<attribute name="decompression" version="0" />
			</rt_info>
			<input>
				<port id="0" precision="FP16" />
			</input>
			<output>
				<port id="1" precision="FP32" />
			</output>
		</layer>
		<layer id="144" name="/backbone/features/stage2/unit1/conv2/activate/Mul/fq_output_0" type="FakeQuantize" version="opset1">
			<data levels="256" auto_broadcast="numpy" />
			<input>
				<port id="0" precision="FP32">
					<dim>1</dim>
					<dim>96</dim>
					<dim>56</dim>
					<dim>56</dim>
				</port>
				<port id="1" precision="FP32" />
				<port id="2" precision="FP32" />
				<port id="3" precision="FP32" />
				<port id="4" precision="FP32" />
			</input>
			<output>
				<port id="5" precision="FP32">
					<dim>1</dim>
					<dim>96</dim>
					<dim>56</dim>
					<dim>56</dim>
				</port>
			</output>
		</layer>
		<layer id="145" name="Range_403" type="Const" version="opset1">
			<data element_type="i64" shape="2" offset="1556" size="16" />
			<output>
				<port id="0" precision="I64">
					<dim>2</dim>
				</port>
			</output>
		</layer>
		<layer id="146" name="/backbone/features/stage2/unit1/se/pool/GlobalAveragePool" type="ReduceMean" version="opset1">
			<data keep_dims="true" />
			<input>
				<port id="0" precision="FP32">
					<dim>1</dim>
					<dim>96</dim>
					<dim>56</dim>
					<dim>56</dim>
				</port>
				<port id="1" precision="I64">
					<dim>2</dim>
				</port>
			</input>
			<output>
				<port id="2" precision="FP32" names="/backbone/features/stage2/unit1/se/pool/GlobalAveragePool_output_0">
					<dim>1</dim>
					<dim>96</dim>
					<dim>1</dim>
					<dim>1</dim>
				</port>
			</output>
		</layer>
		<layer id="147" name="features.stage2.unit1.se.conv1.weight_compressed" type="Const" version="opset1">
			<data element_type="f16" shape="4, 96, 1, 1" offset="6820" size="768" />
			<output>
				<port id="0" precision="FP16" names="features.stage2.unit1.se.conv1.weight">
					<dim>4</dim>
					<dim>96</dim>
					<dim>1</dim>
					<dim>1</dim>
				</port>
			</output>
		</layer>
		<layer id="148" name="features.stage2.unit1.se.conv1.weight" type="Convert" version="opset1">
			<data destination_type="f32" />
			<rt_info>
				<attribute name="decompression" version="0" />
			</rt_info>
			<input>
				<port id="0" precision="FP16">
					<dim>4</dim>
					<dim>96</dim>
					<dim>1</dim>
					<dim>1</dim>
				</port>
			</input>
			<output>
				<port id="1" precision="FP32">
					<dim>4</dim>
					<dim>96</dim>
					<dim>1</dim>
					<dim>1</dim>
				</port>
			</output>
		</layer>
		<layer id="149" name="/backbone/features/stage2/unit1/se/conv1/Conv/WithoutBiases" type="Convolution" version="opset1">
			<data strides="1, 1" dilations="1, 1" pads_begin="0, 0" pads_end="0, 0" auto_pad="explicit" />
			<input>
				<port id="0" precision="FP32">
					<dim>1</dim>
					<dim>96</dim>
					<dim>1</dim>
					<dim>1</dim>
				</port>
				<port id="1" precision="FP32">
					<dim>4</dim>
					<dim>96</dim>
					<dim>1</dim>
					<dim>1</dim>
				</port>
			</input>
			<output>
				<port id="2" precision="FP32">
					<dim>1</dim>
					<dim>4</dim>
					<dim>1</dim>
					<dim>1</dim>
				</port>
			</output>
		</layer>
		<layer id="150" name="Reshape_421_compressed" type="Const" version="opset1">
			<data element_type="f16" shape="1, 4, 1, 1" offset="7588" size="8" />
			<output>
				<port id="0" precision="FP16">
					<dim>1</dim>
					<dim>4</dim>
					<dim>1</dim>
					<dim>1</dim>
				</port>
			</output>
		</layer>
		<layer id="151" name="Reshape_421" type="Convert" version="opset1">
			<data destination_type="f32" />
			<rt_info>
				<attribute name="decompression" version="0" />
			</rt_info>
			<input>
				<port id="0" precision="FP16">
					<dim>1</dim>
					<dim>4</dim>
					<dim>1</dim>
					<dim>1</dim>
				</port>
			</input>
			<output>
				<port id="1" precision="FP32">
					<dim>1</dim>
					<dim>4</dim>
					<dim>1</dim>
					<dim>1</dim>
				</port>
			</output>
		</layer>
		<layer id="152" name="/backbone/features/stage2/unit1/se/conv1/Conv" type="Add" version="opset1">
			<data auto_broadcast="numpy" />
			<input>
				<port id="0" precision="FP32">
					<dim>1</dim>
					<dim>4</dim>
					<dim>1</dim>
					<dim>1</dim>
				</port>
				<port id="1" precision="FP32">
					<dim>1</dim>
					<dim>4</dim>
					<dim>1</dim>
					<dim>1</dim>
				</port>
			</input>
			<output>
				<port id="2" precision="FP32" names="/backbone/features/stage2/unit1/se/conv1/Conv_output_0">
					<dim>1</dim>
					<dim>4</dim>
					<dim>1</dim>
					<dim>1</dim>
				</port>
			</output>
		</layer>
		<layer id="153" name="/backbone/features/stage2/unit1/se/activ/Mul" type="Swish" version="opset4">
			<input>
				<port id="0" precision="FP32">
					<dim>1</dim>
					<dim>4</dim>
					<dim>1</dim>
					<dim>1</dim>
				</port>
			</input>
			<output>
				<port id="1" precision="FP32" names="/backbone/features/stage2/unit1/se/activ/Mul_output_0">
					<dim>1</dim>
					<dim>4</dim>
					<dim>1</dim>
					<dim>1</dim>
				</port>
			</output>
		</layer>
		<layer id="154" name="features.stage2.unit1.se.conv2.weight_compressed" type="Const" version="opset1">
			<data element_type="f16" shape="96, 4, 1, 1" offset="7596" size="768" />
			<output>
				<port id="0" precision="FP16" names="features.stage2.unit1.se.conv2.weight">
					<dim>96</dim>
					<dim>4</dim>
					<dim>1</dim>
					<dim>1</dim>
				</port>
			</output>
		</layer>
		<layer id="155" name="features.stage2.unit1.se.conv2.weight" type="Convert" version="opset1">
			<data destination_type="f32" />
			<rt_info>
				<attribute name="decompression" version="0" />
			</rt_info>
			<input>
				<port id="0" precision="FP16">
					<dim>96</dim>
					<dim>4</dim>
					<dim>1</dim>
					<dim>1</dim>
				</port>
			</input>
			<output>
				<port id="1" precision="FP32">
					<dim>96</dim>
					<dim>4</dim>
					<dim>1</dim>
					<dim>1</dim>
				</port>
			</output>
		</layer>
		<layer id="156" name="/backbone/features/stage2/unit1/se/conv2/Conv/WithoutBiases" type="Convolution" version="opset1">
			<data strides="1, 1" dilations="1, 1" pads_begin="0, 0" pads_end="0, 0" auto_pad="explicit" />
			<input>
				<port id="0" precision="FP32">
					<dim>1</dim>
					<dim>4</dim>
					<dim>1</dim>
					<dim>1</dim>
				</port>
				<port id="1" precision="FP32">
					<dim>96</dim>
					<dim>4</dim>
					<dim>1</dim>
					<dim>1</dim>
				</port>
			</input>
			<output>
				<port id="2" precision="FP32">
					<dim>1</dim>
					<dim>96</dim>
					<dim>1</dim>
					<dim>1</dim>
				</port>
			</output>
		</layer>
		<layer id="157" name="Reshape_439_compressed" type="Const" version="opset1">
			<data element_type="f16" shape="1, 96, 1, 1" offset="8364" size="192" />
			<output>
				<port id="0" precision="FP16">
					<dim>1</dim>
					<dim>96</dim>
					<dim>1</dim>
					<dim>1</dim>
				</port>
			</output>
		</layer>
		<layer id="158" name="Reshape_439" type="Convert" version="opset1">
			<data destination_type="f32" />
			<rt_info>
				<attribute name="decompression" version="0" />
			</rt_info>
			<input>
				<port id="0" precision="FP16">
					<dim>1</dim>
					<dim>96</dim>
					<dim>1</dim>
					<dim>1</dim>
				</port>
			</input>
			<output>
				<port id="1" precision="FP32">
					<dim>1</dim>
					<dim>96</dim>
					<dim>1</dim>
					<dim>1</dim>
				</port>
			</output>
		</layer>
		<layer id="159" name="/backbone/features/stage2/unit1/se/conv2/Conv" type="Add" version="opset1">
			<data auto_broadcast="numpy" />
			<input>
				<port id="0" precision="FP32">
					<dim>1</dim>
					<dim>96</dim>
					<dim>1</dim>
					<dim>1</dim>
				</port>
				<port id="1" precision="FP32">
					<dim>1</dim>
					<dim>96</dim>
					<dim>1</dim>
					<dim>1</dim>
				</port>
			</input>
			<output>
				<port id="2" precision="FP32" names="/backbone/features/stage2/unit1/se/conv2/Conv_output_0">
					<dim>1</dim>
					<dim>96</dim>
					<dim>1</dim>
					<dim>1</dim>
				</port>
			</output>
		</layer>
		<layer id="160" name="/backbone/features/stage2/unit1/se/sigmoid/Sigmoid" type="Sigmoid" version="opset1">
			<input>
				<port id="0" precision="FP32">
					<dim>1</dim>
					<dim>96</dim>
					<dim>1</dim>
					<dim>1</dim>
				</port>
			</input>
			<output>
				<port id="1" precision="FP32" names="/backbone/features/stage2/unit1/se/sigmoid/Sigmoid_output_0">
					<dim>1</dim>
					<dim>96</dim>
					<dim>1</dim>
					<dim>1</dim>
				</port>
			</output>
		</layer>
		<layer id="161" name="Constant_44346_compressed" type="Const" version="opset1">
			<data element_type="f16" shape="" offset="2676" size="2" />
			<output>
				<port id="0" precision="FP16" />
			</output>
		</layer>
		<layer id="162" name="Constant_44346" type="Convert" version="opset1">
			<data destination_type="f32" />
			<rt_info>
				<attribute name="decompression" version="0" />
			</rt_info>
			<input>
				<port id="0" precision="FP16" />
			</input>
			<output>
				<port id="1" precision="FP32" />
			</output>
		</layer>
		<layer id="163" name="Constant_44347_compressed" type="Const" version="opset1">
			<data element_type="f16" shape="" offset="8556" size="2" />
			<output>
				<port id="0" precision="FP16" />
			</output>
		</layer>
		<layer id="164" name="Constant_44347" type="Convert" version="opset1">
			<data destination_type="f32" />
			<rt_info>
				<attribute name="decompression" version="0" />
			</rt_info>
			<input>
				<port id="0" precision="FP16" />
			</input>
			<output>
				<port id="1" precision="FP32" />
			</output>
		</layer>
		<layer id="165" name="Constant_44348_compressed" type="Const" version="opset1">
			<data element_type="f16" shape="" offset="2676" size="2" />
			<output>
				<port id="0" precision="FP16" />
			</output>
		</layer>
		<layer id="166" name="Constant_44348" type="Convert" version="opset1">
			<data destination_type="f32" />
			<rt_info>
				<attribute name="decompression" version="0" />
			</rt_info>
			<input>
				<port id="0" precision="FP16" />
			</input>
			<output>
				<port id="1" precision="FP32" />
			</output>
		</layer>
		<layer id="167" name="Constant_44349_compressed" type="Const" version="opset1">
			<data element_type="f16" shape="" offset="8556" size="2" />
			<output>
				<port id="0" precision="FP16" />
			</output>
		</layer>
		<layer id="168" name="Constant_44349" type="Convert" version="opset1">
			<data destination_type="f32" />
			<rt_info>
				<attribute name="decompression" version="0" />
			</rt_info>
			<input>
				<port id="0" precision="FP16" />
			</input>
			<output>
				<port id="1" precision="FP32" />
			</output>
		</layer>
		<layer id="169" name="/backbone/features/stage2/unit1/se/sigmoid/Sigmoid/fq_output_0" type="FakeQuantize" version="opset1">
			<data levels="256" auto_broadcast="numpy" />
			<input>
				<port id="0" precision="FP32">
					<dim>1</dim>
					<dim>96</dim>
					<dim>1</dim>
					<dim>1</dim>
				</port>
				<port id="1" precision="FP32" />
				<port id="2" precision="FP32" />
				<port id="3" precision="FP32" />
				<port id="4" precision="FP32" />
			</input>
			<output>
				<port id="5" precision="FP32">
					<dim>1</dim>
					<dim>96</dim>
					<dim>1</dim>
					<dim>1</dim>
				</port>
			</output>
		</layer>
		<layer id="170" name="/backbone/features/stage2/unit1/se/Mul" type="Multiply" version="opset1">
			<data auto_broadcast="numpy" />
			<input>
				<port id="0" precision="FP32">
					<dim>1</dim>
					<dim>96</dim>
					<dim>56</dim>
					<dim>56</dim>
				</port>
				<port id="1" precision="FP32">
					<dim>1</dim>
					<dim>96</dim>
					<dim>1</dim>
					<dim>1</dim>
				</port>
			</input>
			<output>
				<port id="2" precision="FP32" names="/backbone/features/stage2/unit1/se/Mul_output_0">
					<dim>1</dim>
					<dim>96</dim>
					<dim>56</dim>
					<dim>56</dim>
				</port>
			</output>
		</layer>
		<layer id="171" name="Constant_44351_compressed" type="Const" version="opset1">
			<data element_type="f16" shape="" offset="8558" size="2" />
			<output>
				<port id="0" precision="FP16" />
			</output>
		</layer>
		<layer id="172" name="Constant_44351" type="Convert" version="opset1">
			<data destination_type="f32" />
			<rt_info>
				<attribute name="decompression" version="0" />
			</rt_info>
			<input>
				<port id="0" precision="FP16" />
			</input>
			<output>
				<port id="1" precision="FP32" />
			</output>
		</layer>
		<layer id="173" name="Constant_44352_compressed" type="Const" version="opset1">
			<data element_type="f16" shape="" offset="8560" size="2" />
			<output>
				<port id="0" precision="FP16" />
			</output>
		</layer>
		<layer id="174" name="Constant_44352" type="Convert" version="opset1">
			<data destination_type="f32" />
			<rt_info>
				<attribute name="decompression" version="0" />
			</rt_info>
			<input>
				<port id="0" precision="FP16" />
			</input>
			<output>
				<port id="1" precision="FP32" />
			</output>
		</layer>
		<layer id="175" name="Constant_44353_compressed" type="Const" version="opset1">
			<data element_type="f16" shape="" offset="8558" size="2" />
			<output>
				<port id="0" precision="FP16" />
			</output>
		</layer>
		<layer id="176" name="Constant_44353" type="Convert" version="opset1">
			<data destination_type="f32" />
			<rt_info>
				<attribute name="decompression" version="0" />
			</rt_info>
			<input>
				<port id="0" precision="FP16" />
			</input>
			<output>
				<port id="1" precision="FP32" />
			</output>
		</layer>
		<layer id="177" name="Constant_44354_compressed" type="Const" version="opset1">
			<data element_type="f16" shape="" offset="8560" size="2" />
			<output>
				<port id="0" precision="FP16" />
			</output>
		</layer>
		<layer id="178" name="Constant_44354" type="Convert" version="opset1">
			<data destination_type="f32" />
			<rt_info>
				<attribute name="decompression" version="0" />
			</rt_info>
			<input>
				<port id="0" precision="FP16" />
			</input>
			<output>
				<port id="1" precision="FP32" />
			</output>
		</layer>
		<layer id="179" name="/backbone/features/stage2/unit1/se/Mul/fq_output_0" type="FakeQuantize" version="opset1">
			<data levels="256" auto_broadcast="numpy" />
			<input>
				<port id="0" precision="FP32">
					<dim>1</dim>
					<dim>96</dim>
					<dim>56</dim>
					<dim>56</dim>
				</port>
				<port id="1" precision="FP32" />
				<port id="2" precision="FP32" />
				<port id="3" precision="FP32" />
				<port id="4" precision="FP32" />
			</input>
			<output>
				<port id="5" precision="FP32">
					<dim>1</dim>
					<dim>96</dim>
					<dim>56</dim>
					<dim>56</dim>
				</port>
			</output>
		</layer>
		<layer id="180" name="Constant_193123" type="Const" version="opset1">
			<data element_type="i8" shape="24, 96, 1, 1" offset="8562" size="2304" />
			<output>
				<port id="0" precision="I8">
					<dim>24</dim>
					<dim>96</dim>
					<dim>1</dim>
					<dim>1</dim>
				</port>
			</output>
		</layer>
		<layer id="181" name="Convert_193124" type="Convert" version="opset1">
			<data destination_type="f32" />
			<input>
				<port id="0" precision="I8">
					<dim>24</dim>
					<dim>96</dim>
					<dim>1</dim>
					<dim>1</dim>
				</port>
			</input>
			<output>
				<port id="1" precision="FP32">
					<dim>24</dim>
					<dim>96</dim>
					<dim>1</dim>
					<dim>1</dim>
				</port>
			</output>
		</layer>
		<layer id="182" name="Constant_193125_compressed" type="Const" version="opset1">
			<data element_type="f16" shape="24, 1, 1, 1" offset="10866" size="48" />
			<output>
				<port id="0" precision="FP16">
					<dim>24</dim>
					<dim>1</dim>
					<dim>1</dim>
					<dim>1</dim>
				</port>
			</output>
		</layer>
		<layer id="183" name="Constant_193125" type="Convert" version="opset1">
			<data destination_type="f32" />
			<rt_info>
				<attribute name="decompression" version="0" />
			</rt_info>
			<input>
				<port id="0" precision="FP16">
					<dim>24</dim>
					<dim>1</dim>
					<dim>1</dim>
					<dim>1</dim>
				</port>
			</input>
			<output>
				<port id="1" precision="FP32">
					<dim>24</dim>
					<dim>1</dim>
					<dim>1</dim>
					<dim>1</dim>
				</port>
			</output>
		</layer>
		<layer id="184" name="/backbone/features/stage2/unit1/conv3/conv/Conv/WithoutBiases/fq_weights_1" type="Multiply" version="opset1">
			<data auto_broadcast="numpy" />
			<input>
				<port id="0" precision="FP32">
					<dim>24</dim>
					<dim>96</dim>
					<dim>1</dim>
					<dim>1</dim>
				</port>
				<port id="1" precision="FP32">
					<dim>24</dim>
					<dim>1</dim>
					<dim>1</dim>
					<dim>1</dim>
				</port>
			</input>
			<output>
				<port id="2" precision="FP32">
					<dim>24</dim>
					<dim>96</dim>
					<dim>1</dim>
					<dim>1</dim>
				</port>
			</output>
		</layer>
		<layer id="185" name="/backbone/features/stage2/unit1/conv3/conv/Conv/WithoutBiases" type="Convolution" version="opset1">
			<data strides="1, 1" dilations="1, 1" pads_begin="0, 0" pads_end="0, 0" auto_pad="explicit" />
			<input>
				<port id="0" precision="FP32">
					<dim>1</dim>
					<dim>96</dim>
					<dim>56</dim>
					<dim>56</dim>
				</port>
				<port id="1" precision="FP32">
					<dim>24</dim>
					<dim>96</dim>
					<dim>1</dim>
					<dim>1</dim>
				</port>
			</input>
			<output>
				<port id="2" precision="FP32">
					<dim>1</dim>
					<dim>24</dim>
					<dim>56</dim>
					<dim>56</dim>
				</port>
			</output>
		</layer>
		<layer id="186" name="Reshape_457_compressed" type="Const" version="opset1">
			<data element_type="f16" shape="1, 24, 1, 1" offset="10914" size="48" />
			<output>
				<port id="0" precision="FP16">
					<dim>1</dim>
					<dim>24</dim>
					<dim>1</dim>
					<dim>1</dim>
				</port>
			</output>
		</layer>
		<layer id="187" name="Reshape_457" type="Convert" version="opset1">
			<data destination_type="f32" />
			<rt_info>
				<attribute name="decompression" version="0" />
			</rt_info>
			<input>
				<port id="0" precision="FP16">
					<dim>1</dim>
					<dim>24</dim>
					<dim>1</dim>
					<dim>1</dim>
				</port>
			</input>
			<output>
				<port id="1" precision="FP32">
					<dim>1</dim>
					<dim>24</dim>
					<dim>1</dim>
					<dim>1</dim>
				</port>
			</output>
		</layer>
		<layer id="188" name="/backbone/features/stage2/unit1/conv3/conv/Conv" type="Add" version="opset1">
			<data auto_broadcast="numpy" />
			<input>
				<port id="0" precision="FP32">
					<dim>1</dim>
					<dim>24</dim>
					<dim>56</dim>
					<dim>56</dim>
				</port>
				<port id="1" precision="FP32">
					<dim>1</dim>
					<dim>24</dim>
					<dim>1</dim>
					<dim>1</dim>
				</port>
			</input>
			<output>
				<port id="2" precision="FP32" names="/backbone/features/stage2/unit1/conv3/conv/Conv_output_0">
					<dim>1</dim>
					<dim>24</dim>
					<dim>56</dim>
					<dim>56</dim>
				</port>
			</output>
		</layer>
		<layer id="189" name="Constant_44361_compressed" type="Const" version="opset1">
			<data element_type="f16" shape="" offset="10962" size="2" />
			<output>
				<port id="0" precision="FP16" />
			</output>
		</layer>
		<layer id="190" name="Constant_44361" type="Convert" version="opset1">
			<data destination_type="f32" />
			<rt_info>
				<attribute name="decompression" version="0" />
			</rt_info>
			<input>
				<port id="0" precision="FP16" />
			</input>
			<output>
				<port id="1" precision="FP32" />
			</output>
		</layer>
		<layer id="191" name="Constant_44362_compressed" type="Const" version="opset1">
			<data element_type="f16" shape="" offset="10964" size="2" />
			<output>
				<port id="0" precision="FP16" />
			</output>
		</layer>
		<layer id="192" name="Constant_44362" type="Convert" version="opset1">
			<data destination_type="f32" />
			<rt_info>
				<attribute name="decompression" version="0" />
			</rt_info>
			<input>
				<port id="0" precision="FP16" />
			</input>
			<output>
				<port id="1" precision="FP32" />
			</output>
		</layer>
		<layer id="193" name="Constant_44363_compressed" type="Const" version="opset1">
			<data element_type="f16" shape="" offset="10962" size="2" />
			<output>
				<port id="0" precision="FP16" />
			</output>
		</layer>
		<layer id="194" name="Constant_44363" type="Convert" version="opset1">
			<data destination_type="f32" />
			<rt_info>
				<attribute name="decompression" version="0" />
			</rt_info>
			<input>
				<port id="0" precision="FP16" />
			</input>
			<output>
				<port id="1" precision="FP32" />
			</output>
		</layer>
		<layer id="195" name="Constant_44364_compressed" type="Const" version="opset1">
			<data element_type="f16" shape="" offset="10964" size="2" />
			<output>
				<port id="0" precision="FP16" />
			</output>
		</layer>
		<layer id="196" name="Constant_44364" type="Convert" version="opset1">
			<data destination_type="f32" />
			<rt_info>
				<attribute name="decompression" version="0" />
			</rt_info>
			<input>
				<port id="0" precision="FP16" />
			</input>
			<output>
				<port id="1" precision="FP32" />
			</output>
		</layer>
		<layer id="197" name="/backbone/features/stage2/unit1/conv3/conv/Conv/fq_output_0" type="FakeQuantize" version="opset1">
			<data levels="256" auto_broadcast="numpy" />
			<input>
				<port id="0" precision="FP32">
					<dim>1</dim>
					<dim>24</dim>
					<dim>56</dim>
					<dim>56</dim>
				</port>
				<port id="1" precision="FP32" />
				<port id="2" precision="FP32" />
				<port id="3" precision="FP32" />
				<port id="4" precision="FP32" />
			</input>
			<output>
				<port id="5" precision="FP32">
					<dim>1</dim>
					<dim>24</dim>
					<dim>56</dim>
					<dim>56</dim>
				</port>
			</output>
		</layer>
		<layer id="198" name="Constant_193127" type="Const" version="opset1">
			<data element_type="i8" shape="144, 24, 1, 1" offset="10966" size="3456" />
			<output>
				<port id="0" precision="I8">
					<dim>144</dim>
					<dim>24</dim>
					<dim>1</dim>
					<dim>1</dim>
				</port>
			</output>
		</layer>
		<layer id="199" name="Convert_193128" type="Convert" version="opset1">
			<data destination_type="f32" />
			<input>
				<port id="0" precision="I8">
					<dim>144</dim>
					<dim>24</dim>
					<dim>1</dim>
					<dim>1</dim>
				</port>
			</input>
			<output>
				<port id="1" precision="FP32">
					<dim>144</dim>
					<dim>24</dim>
					<dim>1</dim>
					<dim>1</dim>
				</port>
			</output>
		</layer>
		<layer id="200" name="Constant_193129_compressed" type="Const" version="opset1">
			<data element_type="f16" shape="144, 1, 1, 1" offset="14422" size="288" />
			<output>
				<port id="0" precision="FP16">
					<dim>144</dim>
					<dim>1</dim>
					<dim>1</dim>
					<dim>1</dim>
				</port>
			</output>
		</layer>
		<layer id="201" name="Constant_193129" type="Convert" version="opset1">
			<data destination_type="f32" />
			<rt_info>
				<attribute name="decompression" version="0" />
			</rt_info>
			<input>
				<port id="0" precision="FP16">
					<dim>144</dim>
					<dim>1</dim>
					<dim>1</dim>
					<dim>1</dim>
				</port>
			</input>
			<output>
				<port id="1" precision="FP32">
					<dim>144</dim>
					<dim>1</dim>
					<dim>1</dim>
					<dim>1</dim>
				</port>
			</output>
		</layer>
		<layer id="202" name="/backbone/features/stage2/unit2/conv1/conv/Conv/WithoutBiases/fq_weights_1" type="Multiply" version="opset1">
			<data auto_broadcast="numpy" />
			<input>
				<port id="0" precision="FP32">
					<dim>144</dim>
					<dim>24</dim>
					<dim>1</dim>
					<dim>1</dim>
				</port>
				<port id="1" precision="FP32">
					<dim>144</dim>
					<dim>1</dim>
					<dim>1</dim>
					<dim>1</dim>
				</port>
			</input>
			<output>
				<port id="2" precision="FP32">
					<dim>144</dim>
					<dim>24</dim>
					<dim>1</dim>
					<dim>1</dim>
				</port>
			</output>
		</layer>
		<layer id="203" name="/backbone/features/stage2/unit2/conv1/conv/Conv/WithoutBiases" type="Convolution" version="opset1">
			<data strides="1, 1" dilations="1, 1" pads_begin="0, 0" pads_end="0, 0" auto_pad="explicit" />
			<input>
				<port id="0" precision="FP32">
					<dim>1</dim>
					<dim>24</dim>
					<dim>56</dim>
					<dim>56</dim>
				</port>
				<port id="1" precision="FP32">
					<dim>144</dim>
					<dim>24</dim>
					<dim>1</dim>
					<dim>1</dim>
				</port>
			</input>
			<output>
				<port id="2" precision="FP32">
					<dim>1</dim>
					<dim>144</dim>
					<dim>56</dim>
					<dim>56</dim>
				</port>
			</output>
		</layer>
		<layer id="204" name="Reshape_473_compressed" type="Const" version="opset1">
			<data element_type="f16" shape="1, 144, 1, 1" offset="14710" size="288" />
			<output>
				<port id="0" precision="FP16">
					<dim>1</dim>
					<dim>144</dim>
					<dim>1</dim>
					<dim>1</dim>
				</port>
			</output>
		</layer>
		<layer id="205" name="Reshape_473" type="Convert" version="opset1">
			<data destination_type="f32" />
			<rt_info>
				<attribute name="decompression" version="0" />
			</rt_info>
			<input>
				<port id="0" precision="FP16">
					<dim>1</dim>
					<dim>144</dim>
					<dim>1</dim>
					<dim>1</dim>
				</port>
			</input>
			<output>
				<port id="1" precision="FP32">
					<dim>1</dim>
					<dim>144</dim>
					<dim>1</dim>
					<dim>1</dim>
				</port>
			</output>
		</layer>
		<layer id="206" name="/backbone/features/stage2/unit2/conv1/conv/Conv" type="Add" version="opset1">
			<data auto_broadcast="numpy" />
			<input>
				<port id="0" precision="FP32">
					<dim>1</dim>
					<dim>144</dim>
					<dim>56</dim>
					<dim>56</dim>
				</port>
				<port id="1" precision="FP32">
					<dim>1</dim>
					<dim>144</dim>
					<dim>1</dim>
					<dim>1</dim>
				</port>
			</input>
			<output>
				<port id="2" precision="FP32" names="/backbone/features/stage2/unit2/conv1/conv/Conv_output_0">
					<dim>1</dim>
					<dim>144</dim>
					<dim>56</dim>
					<dim>56</dim>
				</port>
			</output>
		</layer>
		<layer id="207" name="/backbone/features/stage2/unit2/conv1/activate/Mul" type="Swish" version="opset4">
			<input>
				<port id="0" precision="FP32">
					<dim>1</dim>
					<dim>144</dim>
					<dim>56</dim>
					<dim>56</dim>
				</port>
			</input>
			<output>
				<port id="1" precision="FP32" names="/backbone/features/stage2/unit2/conv1/activate/Mul_output_0">
					<dim>1</dim>
					<dim>144</dim>
					<dim>56</dim>
					<dim>56</dim>
				</port>
			</output>
		</layer>
		<layer id="208" name="Constant_44371_compressed" type="Const" version="opset1">
			<data element_type="f16" shape="1, 144, 1, 1" offset="14998" size="288" />
			<output>
				<port id="0" precision="FP16">
					<dim>1</dim>
					<dim>144</dim>
					<dim>1</dim>
					<dim>1</dim>
				</port>
			</output>
		</layer>
		<layer id="209" name="Constant_44371" type="Convert" version="opset1">
			<data destination_type="f32" />
			<rt_info>
				<attribute name="decompression" version="0" />
			</rt_info>
			<input>
				<port id="0" precision="FP16">
					<dim>1</dim>
					<dim>144</dim>
					<dim>1</dim>
					<dim>1</dim>
				</port>
			</input>
			<output>
				<port id="1" precision="FP32">
					<dim>1</dim>
					<dim>144</dim>
					<dim>1</dim>
					<dim>1</dim>
				</port>
			</output>
		</layer>
		<layer id="210" name="Constant_44372_compressed" type="Const" version="opset1">
			<data element_type="f16" shape="1, 144, 1, 1" offset="15286" size="288" />
			<output>
				<port id="0" precision="FP16">
					<dim>1</dim>
					<dim>144</dim>
					<dim>1</dim>
					<dim>1</dim>
				</port>
			</output>
		</layer>
		<layer id="211" name="Constant_44372" type="Convert" version="opset1">
			<data destination_type="f32" />
			<rt_info>
				<attribute name="decompression" version="0" />
			</rt_info>
			<input>
				<port id="0" precision="FP16">
					<dim>1</dim>
					<dim>144</dim>
					<dim>1</dim>
					<dim>1</dim>
				</port>
			</input>
			<output>
				<port id="1" precision="FP32">
					<dim>1</dim>
					<dim>144</dim>
					<dim>1</dim>
					<dim>1</dim>
				</port>
			</output>
		</layer>
		<layer id="212" name="Constant_44373_compressed" type="Const" version="opset1">
			<data element_type="f16" shape="1, 144, 1, 1" offset="14998" size="288" />
			<output>
				<port id="0" precision="FP16">
					<dim>1</dim>
					<dim>144</dim>
					<dim>1</dim>
					<dim>1</dim>
				</port>
			</output>
		</layer>
		<layer id="213" name="Constant_44373" type="Convert" version="opset1">
			<data destination_type="f32" />
			<rt_info>
				<attribute name="decompression" version="0" />
			</rt_info>
			<input>
				<port id="0" precision="FP16">
					<dim>1</dim>
					<dim>144</dim>
					<dim>1</dim>
					<dim>1</dim>
				</port>
			</input>
			<output>
				<port id="1" precision="FP32">
					<dim>1</dim>
					<dim>144</dim>
					<dim>1</dim>
					<dim>1</dim>
				</port>
			</output>
		</layer>
		<layer id="214" name="Constant_44374_compressed" type="Const" version="opset1">
			<data element_type="f16" shape="1, 144, 1, 1" offset="15286" size="288" />
			<output>
				<port id="0" precision="FP16">
					<dim>1</dim>
					<dim>144</dim>
					<dim>1</dim>
					<dim>1</dim>
				</port>
			</output>
		</layer>
		<layer id="215" name="Constant_44374" type="Convert" version="opset1">
			<data destination_type="f32" />
			<rt_info>
				<attribute name="decompression" version="0" />
			</rt_info>
			<input>
				<port id="0" precision="FP16">
					<dim>1</dim>
					<dim>144</dim>
					<dim>1</dim>
					<dim>1</dim>
				</port>
			</input>
			<output>
				<port id="1" precision="FP32">
					<dim>1</dim>
					<dim>144</dim>
					<dim>1</dim>
					<dim>1</dim>
				</port>
			</output>
		</layer>
		<layer id="216" name="/backbone/features/stage2/unit2/conv1/activate/Mul/fq_output_0" type="FakeQuantize" version="opset1">
			<data levels="256" auto_broadcast="numpy" />
			<input>
				<port id="0" precision="FP32">
					<dim>1</dim>
					<dim>144</dim>
					<dim>56</dim>
					<dim>56</dim>
				</port>
				<port id="1" precision="FP32">
					<dim>1</dim>
					<dim>144</dim>
					<dim>1</dim>
					<dim>1</dim>
				</port>
				<port id="2" precision="FP32">
					<dim>1</dim>
					<dim>144</dim>
					<dim>1</dim>
					<dim>1</dim>
				</port>
				<port id="3" precision="FP32">
					<dim>1</dim>
					<dim>144</dim>
					<dim>1</dim>
					<dim>1</dim>
				</port>
				<port id="4" precision="FP32">
					<dim>1</dim>
					<dim>144</dim>
					<dim>1</dim>
					<dim>1</dim>
				</port>
			</input>
			<output>
				<port id="5" precision="FP32">
					<dim>1</dim>
					<dim>144</dim>
					<dim>56</dim>
					<dim>56</dim>
				</port>
			</output>
		</layer>
		<layer id="217" name="Constant_193131" type="Const" version="opset1">
			<data element_type="i8" shape="144, 1, 1, 3, 3" offset="15574" size="1296" />
			<output>
				<port id="0" precision="I8">
					<dim>144</dim>
					<dim>1</dim>
					<dim>1</dim>
					<dim>3</dim>
					<dim>3</dim>
				</port>
			</output>
		</layer>
		<layer id="218" name="Convert_193132" type="Convert" version="opset1">
			<data destination_type="f32" />
			<input>
				<port id="0" precision="I8">
					<dim>144</dim>
					<dim>1</dim>
					<dim>1</dim>
					<dim>3</dim>
					<dim>3</dim>
				</port>
			</input>
			<output>
				<port id="1" precision="FP32">
					<dim>144</dim>
					<dim>1</dim>
					<dim>1</dim>
					<dim>3</dim>
					<dim>3</dim>
				</port>
			</output>
		</layer>
		<layer id="219" name="Constant_193133_compressed" type="Const" version="opset1">
			<data element_type="f16" shape="144, 1, 1, 1, 1" offset="16870" size="288" />
			<output>
				<port id="0" precision="FP16">
					<dim>144</dim>
					<dim>1</dim>
					<dim>1</dim>
					<dim>1</dim>
					<dim>1</dim>
				</port>
			</output>
		</layer>
		<layer id="220" name="Constant_193133" type="Convert" version="opset1">
			<data destination_type="f32" />
			<rt_info>
				<attribute name="decompression" version="0" />
			</rt_info>
			<input>
				<port id="0" precision="FP16">
					<dim>144</dim>
					<dim>1</dim>
					<dim>1</dim>
					<dim>1</dim>
					<dim>1</dim>
				</port>
			</input>
			<output>
				<port id="1" precision="FP32">
					<dim>144</dim>
					<dim>1</dim>
					<dim>1</dim>
					<dim>1</dim>
					<dim>1</dim>
				</port>
			</output>
		</layer>
		<layer id="221" name="/backbone/features/stage2/unit2/conv2/conv/Conv/WithoutBiases/fq_weights_1" type="Multiply" version="opset1">
			<data auto_broadcast="numpy" />
			<input>
				<port id="0" precision="FP32">
					<dim>144</dim>
					<dim>1</dim>
					<dim>1</dim>
					<dim>3</dim>
					<dim>3</dim>
				</port>
				<port id="1" precision="FP32">
					<dim>144</dim>
					<dim>1</dim>
					<dim>1</dim>
					<dim>1</dim>
					<dim>1</dim>
				</port>
			</input>
			<output>
				<port id="2" precision="FP32">
					<dim>144</dim>
					<dim>1</dim>
					<dim>1</dim>
					<dim>3</dim>
					<dim>3</dim>
				</port>
			</output>
		</layer>
		<layer id="222" name="/backbone/features/stage2/unit2/conv2/conv/Conv/WithoutBiases" type="GroupConvolution" version="opset1">
			<data strides="1, 1" pads_begin="1, 1" pads_end="1, 1" dilations="1, 1" auto_pad="explicit" />
			<input>
				<port id="0" precision="FP32">
					<dim>1</dim>
					<dim>144</dim>
					<dim>56</dim>
					<dim>56</dim>
				</port>
				<port id="1" precision="FP32">
					<dim>144</dim>
					<dim>1</dim>
					<dim>1</dim>
					<dim>3</dim>
					<dim>3</dim>
				</port>
			</input>
			<output>
				<port id="2" precision="FP32">
					<dim>1</dim>
					<dim>144</dim>
					<dim>56</dim>
					<dim>56</dim>
				</port>
			</output>
		</layer>
		<layer id="223" name="Reshape_538_compressed" type="Const" version="opset1">
			<data element_type="f16" shape="1, 144, 1, 1" offset="17158" size="288" />
			<output>
				<port id="0" precision="FP16">
					<dim>1</dim>
					<dim>144</dim>
					<dim>1</dim>
					<dim>1</dim>
				</port>
			</output>
		</layer>
		<layer id="224" name="Reshape_538" type="Convert" version="opset1">
			<data destination_type="f32" />
			<rt_info>
				<attribute name="decompression" version="0" />
			</rt_info>
			<input>
				<port id="0" precision="FP16">
					<dim>1</dim>
					<dim>144</dim>
					<dim>1</dim>
					<dim>1</dim>
				</port>
			</input>
			<output>
				<port id="1" precision="FP32">
					<dim>1</dim>
					<dim>144</dim>
					<dim>1</dim>
					<dim>1</dim>
				</port>
			</output>
		</layer>
		<layer id="225" name="/backbone/features/stage2/unit2/conv2/conv/Conv" type="Add" version="opset1">
			<data auto_broadcast="numpy" />
			<input>
				<port id="0" precision="FP32">
					<dim>1</dim>
					<dim>144</dim>
					<dim>56</dim>
					<dim>56</dim>
				</port>
				<port id="1" precision="FP32">
					<dim>1</dim>
					<dim>144</dim>
					<dim>1</dim>
					<dim>1</dim>
				</port>
			</input>
			<output>
				<port id="2" precision="FP32" names="/backbone/features/stage2/unit2/conv2/conv/Conv_output_0">
					<dim>1</dim>
					<dim>144</dim>
					<dim>56</dim>
					<dim>56</dim>
				</port>
			</output>
		</layer>
		<layer id="226" name="/backbone/features/stage2/unit2/conv2/activate/Mul" type="Swish" version="opset4">
			<input>
				<port id="0" precision="FP32">
					<dim>1</dim>
					<dim>144</dim>
					<dim>56</dim>
					<dim>56</dim>
				</port>
			</input>
			<output>
				<port id="1" precision="FP32" names="/backbone/features/stage2/unit2/conv2/activate/Mul_output_0">
					<dim>1</dim>
					<dim>144</dim>
					<dim>56</dim>
					<dim>56</dim>
				</port>
			</output>
		</layer>
		<layer id="227" name="Constant_44381_compressed" type="Const" version="opset1">
			<data element_type="f16" shape="" offset="17446" size="2" />
			<output>
				<port id="0" precision="FP16" />
			</output>
		</layer>
		<layer id="228" name="Constant_44381" type="Convert" version="opset1">
			<data destination_type="f32" />
			<rt_info>
				<attribute name="decompression" version="0" />
			</rt_info>
			<input>
				<port id="0" precision="FP16" />
			</input>
			<output>
				<port id="1" precision="FP32" />
			</output>
		</layer>
		<layer id="229" name="Constant_44382_compressed" type="Const" version="opset1">
			<data element_type="f16" shape="" offset="17448" size="2" />
			<output>
				<port id="0" precision="FP16" />
			</output>
		</layer>
		<layer id="230" name="Constant_44382" type="Convert" version="opset1">
			<data destination_type="f32" />
			<rt_info>
				<attribute name="decompression" version="0" />
			</rt_info>
			<input>
				<port id="0" precision="FP16" />
			</input>
			<output>
				<port id="1" precision="FP32" />
			</output>
		</layer>
		<layer id="231" name="Constant_44383_compressed" type="Const" version="opset1">
			<data element_type="f16" shape="" offset="17446" size="2" />
			<output>
				<port id="0" precision="FP16" />
			</output>
		</layer>
		<layer id="232" name="Constant_44383" type="Convert" version="opset1">
			<data destination_type="f32" />
			<rt_info>
				<attribute name="decompression" version="0" />
			</rt_info>
			<input>
				<port id="0" precision="FP16" />
			</input>
			<output>
				<port id="1" precision="FP32" />
			</output>
		</layer>
		<layer id="233" name="Constant_44384_compressed" type="Const" version="opset1">
			<data element_type="f16" shape="" offset="17448" size="2" />
			<output>
				<port id="0" precision="FP16" />
			</output>
		</layer>
		<layer id="234" name="Constant_44384" type="Convert" version="opset1">
			<data destination_type="f32" />
			<rt_info>
				<attribute name="decompression" version="0" />
			</rt_info>
			<input>
				<port id="0" precision="FP16" />
			</input>
			<output>
				<port id="1" precision="FP32" />
			</output>
		</layer>
		<layer id="235" name="/backbone/features/stage2/unit2/conv2/activate/Mul/fq_output_0" type="FakeQuantize" version="opset1">
			<data levels="256" auto_broadcast="numpy" />
			<input>
				<port id="0" precision="FP32">
					<dim>1</dim>
					<dim>144</dim>
					<dim>56</dim>
					<dim>56</dim>
				</port>
				<port id="1" precision="FP32" />
				<port id="2" precision="FP32" />
				<port id="3" precision="FP32" />
				<port id="4" precision="FP32" />
			</input>
			<output>
				<port id="5" precision="FP32">
					<dim>1</dim>
					<dim>144</dim>
					<dim>56</dim>
					<dim>56</dim>
				</port>
			</output>
		</layer>
		<layer id="236" name="Range_550" type="Const" version="opset1">
			<data element_type="i64" shape="2" offset="1556" size="16" />
			<output>
				<port id="0" precision="I64">
					<dim>2</dim>
				</port>
			</output>
		</layer>
		<layer id="237" name="/backbone/features/stage2/unit2/se/pool/GlobalAveragePool" type="ReduceMean" version="opset1">
			<data keep_dims="true" />
			<input>
				<port id="0" precision="FP32">
					<dim>1</dim>
					<dim>144</dim>
					<dim>56</dim>
					<dim>56</dim>
				</port>
				<port id="1" precision="I64">
					<dim>2</dim>
				</port>
			</input>
			<output>
				<port id="2" precision="FP32" names="/backbone/features/stage2/unit2/se/pool/GlobalAveragePool_output_0">
					<dim>1</dim>
					<dim>144</dim>
					<dim>1</dim>
					<dim>1</dim>
				</port>
			</output>
		</layer>
		<layer id="238" name="features.stage2.unit2.se.conv1.weight_compressed" type="Const" version="opset1">
			<data element_type="f16" shape="6, 144, 1, 1" offset="17450" size="1728" />
			<output>
				<port id="0" precision="FP16" names="features.stage2.unit2.se.conv1.weight">
					<dim>6</dim>
					<dim>144</dim>
					<dim>1</dim>
					<dim>1</dim>
				</port>
			</output>
		</layer>
		<layer id="239" name="features.stage2.unit2.se.conv1.weight" type="Convert" version="opset1">
			<data destination_type="f32" />
			<rt_info>
				<attribute name="decompression" version="0" />
			</rt_info>
			<input>
				<port id="0" precision="FP16">
					<dim>6</dim>
					<dim>144</dim>
					<dim>1</dim>
					<dim>1</dim>
				</port>
			</input>
			<output>
				<port id="1" precision="FP32">
					<dim>6</dim>
					<dim>144</dim>
					<dim>1</dim>
					<dim>1</dim>
				</port>
			</output>
		</layer>
		<layer id="240" name="/backbone/features/stage2/unit2/se/conv1/Conv/WithoutBiases" type="Convolution" version="opset1">
			<data strides="1, 1" dilations="1, 1" pads_begin="0, 0" pads_end="0, 0" auto_pad="explicit" />
			<input>
				<port id="0" precision="FP32">
					<dim>1</dim>
					<dim>144</dim>
					<dim>1</dim>
					<dim>1</dim>
				</port>
				<port id="1" precision="FP32">
					<dim>6</dim>
					<dim>144</dim>
					<dim>1</dim>
					<dim>1</dim>
				</port>
			</input>
			<output>
				<port id="2" precision="FP32">
					<dim>1</dim>
					<dim>6</dim>
					<dim>1</dim>
					<dim>1</dim>
				</port>
			</output>
		</layer>
		<layer id="241" name="Reshape_568_compressed" type="Const" version="opset1">
			<data element_type="f16" shape="1, 6, 1, 1" offset="19178" size="12" />
			<output>
				<port id="0" precision="FP16">
					<dim>1</dim>
					<dim>6</dim>
					<dim>1</dim>
					<dim>1</dim>
				</port>
			</output>
		</layer>
		<layer id="242" name="Reshape_568" type="Convert" version="opset1">
			<data destination_type="f32" />
			<rt_info>
				<attribute name="decompression" version="0" />
			</rt_info>
			<input>
				<port id="0" precision="FP16">
					<dim>1</dim>
					<dim>6</dim>
					<dim>1</dim>
					<dim>1</dim>
				</port>
			</input>
			<output>
				<port id="1" precision="FP32">
					<dim>1</dim>
					<dim>6</dim>
					<dim>1</dim>
					<dim>1</dim>
				</port>
			</output>
		</layer>
		<layer id="243" name="/backbone/features/stage2/unit2/se/conv1/Conv" type="Add" version="opset1">
			<data auto_broadcast="numpy" />
			<input>
				<port id="0" precision="FP32">
					<dim>1</dim>
					<dim>6</dim>
					<dim>1</dim>
					<dim>1</dim>
				</port>
				<port id="1" precision="FP32">
					<dim>1</dim>
					<dim>6</dim>
					<dim>1</dim>
					<dim>1</dim>
				</port>
			</input>
			<output>
				<port id="2" precision="FP32" names="/backbone/features/stage2/unit2/se/conv1/Conv_output_0">
					<dim>1</dim>
					<dim>6</dim>
					<dim>1</dim>
					<dim>1</dim>
				</port>
			</output>
		</layer>
		<layer id="244" name="/backbone/features/stage2/unit2/se/activ/Mul" type="Swish" version="opset4">
			<input>
				<port id="0" precision="FP32">
					<dim>1</dim>
					<dim>6</dim>
					<dim>1</dim>
					<dim>1</dim>
				</port>
			</input>
			<output>
				<port id="1" precision="FP32" names="/backbone/features/stage2/unit2/se/activ/Mul_output_0">
					<dim>1</dim>
					<dim>6</dim>
					<dim>1</dim>
					<dim>1</dim>
				</port>
			</output>
		</layer>
		<layer id="245" name="features.stage2.unit2.se.conv2.weight_compressed" type="Const" version="opset1">
			<data element_type="f16" shape="144, 6, 1, 1" offset="19190" size="1728" />
			<output>
				<port id="0" precision="FP16" names="features.stage2.unit2.se.conv2.weight">
					<dim>144</dim>
					<dim>6</dim>
					<dim>1</dim>
					<dim>1</dim>
				</port>
			</output>
		</layer>
		<layer id="246" name="features.stage2.unit2.se.conv2.weight" type="Convert" version="opset1">
			<data destination_type="f32" />
			<rt_info>
				<attribute name="decompression" version="0" />
			</rt_info>
			<input>
				<port id="0" precision="FP16">
					<dim>144</dim>
					<dim>6</dim>
					<dim>1</dim>
					<dim>1</dim>
				</port>
			</input>
			<output>
				<port id="1" precision="FP32">
					<dim>144</dim>
					<dim>6</dim>
					<dim>1</dim>
					<dim>1</dim>
				</port>
			</output>
		</layer>
		<layer id="247" name="/backbone/features/stage2/unit2/se/conv2/Conv/WithoutBiases" type="Convolution" version="opset1">
			<data strides="1, 1" dilations="1, 1" pads_begin="0, 0" pads_end="0, 0" auto_pad="explicit" />
			<input>
				<port id="0" precision="FP32">
					<dim>1</dim>
					<dim>6</dim>
					<dim>1</dim>
					<dim>1</dim>
				</port>
				<port id="1" precision="FP32">
					<dim>144</dim>
					<dim>6</dim>
					<dim>1</dim>
					<dim>1</dim>
				</port>
			</input>
			<output>
				<port id="2" precision="FP32">
					<dim>1</dim>
					<dim>144</dim>
					<dim>1</dim>
					<dim>1</dim>
				</port>
			</output>
		</layer>
		<layer id="248" name="Reshape_586_compressed" type="Const" version="opset1">
			<data element_type="f16" shape="1, 144, 1, 1" offset="20918" size="288" />
			<output>
				<port id="0" precision="FP16">
					<dim>1</dim>
					<dim>144</dim>
					<dim>1</dim>
					<dim>1</dim>
				</port>
			</output>
		</layer>
		<layer id="249" name="Reshape_586" type="Convert" version="opset1">
			<data destination_type="f32" />
			<rt_info>
				<attribute name="decompression" version="0" />
			</rt_info>
			<input>
				<port id="0" precision="FP16">
					<dim>1</dim>
					<dim>144</dim>
					<dim>1</dim>
					<dim>1</dim>
				</port>
			</input>
			<output>
				<port id="1" precision="FP32">
					<dim>1</dim>
					<dim>144</dim>
					<dim>1</dim>
					<dim>1</dim>
				</port>
			</output>
		</layer>
		<layer id="250" name="/backbone/features/stage2/unit2/se/conv2/Conv" type="Add" version="opset1">
			<data auto_broadcast="numpy" />
			<input>
				<port id="0" precision="FP32">
					<dim>1</dim>
					<dim>144</dim>
					<dim>1</dim>
					<dim>1</dim>
				</port>
				<port id="1" precision="FP32">
					<dim>1</dim>
					<dim>144</dim>
					<dim>1</dim>
					<dim>1</dim>
				</port>
			</input>
			<output>
				<port id="2" precision="FP32" names="/backbone/features/stage2/unit2/se/conv2/Conv_output_0">
					<dim>1</dim>
					<dim>144</dim>
					<dim>1</dim>
					<dim>1</dim>
				</port>
			</output>
		</layer>
		<layer id="251" name="/backbone/features/stage2/unit2/se/sigmoid/Sigmoid" type="Sigmoid" version="opset1">
			<input>
				<port id="0" precision="FP32">
					<dim>1</dim>
					<dim>144</dim>
					<dim>1</dim>
					<dim>1</dim>
				</port>
			</input>
			<output>
				<port id="1" precision="FP32" names="/backbone/features/stage2/unit2/se/sigmoid/Sigmoid_output_0">
					<dim>1</dim>
					<dim>144</dim>
					<dim>1</dim>
					<dim>1</dim>
				</port>
			</output>
		</layer>
		<layer id="252" name="Constant_44386_compressed" type="Const" version="opset1">
			<data element_type="f16" shape="" offset="2676" size="2" />
			<output>
				<port id="0" precision="FP16" />
			</output>
		</layer>
		<layer id="253" name="Constant_44386" type="Convert" version="opset1">
			<data destination_type="f32" />
			<rt_info>
				<attribute name="decompression" version="0" />
			</rt_info>
			<input>
				<port id="0" precision="FP16" />
			</input>
			<output>
				<port id="1" precision="FP32" />
			</output>
		</layer>
		<layer id="254" name="Constant_44387_compressed" type="Const" version="opset1">
			<data element_type="f16" shape="" offset="21206" size="2" />
			<output>
				<port id="0" precision="FP16" />
			</output>
		</layer>
		<layer id="255" name="Constant_44387" type="Convert" version="opset1">
			<data destination_type="f32" />
			<rt_info>
				<attribute name="decompression" version="0" />
			</rt_info>
			<input>
				<port id="0" precision="FP16" />
			</input>
			<output>
				<port id="1" precision="FP32" />
			</output>
		</layer>
		<layer id="256" name="Constant_44388_compressed" type="Const" version="opset1">
			<data element_type="f16" shape="" offset="2676" size="2" />
			<output>
				<port id="0" precision="FP16" />
			</output>
		</layer>
		<layer id="257" name="Constant_44388" type="Convert" version="opset1">
			<data destination_type="f32" />
			<rt_info>
				<attribute name="decompression" version="0" />
			</rt_info>
			<input>
				<port id="0" precision="FP16" />
			</input>
			<output>
				<port id="1" precision="FP32" />
			</output>
		</layer>
		<layer id="258" name="Constant_44389_compressed" type="Const" version="opset1">
			<data element_type="f16" shape="" offset="21206" size="2" />
			<output>
				<port id="0" precision="FP16" />
			</output>
		</layer>
		<layer id="259" name="Constant_44389" type="Convert" version="opset1">
			<data destination_type="f32" />
			<rt_info>
				<attribute name="decompression" version="0" />
			</rt_info>
			<input>
				<port id="0" precision="FP16" />
			</input>
			<output>
				<port id="1" precision="FP32" />
			</output>
		</layer>
		<layer id="260" name="/backbone/features/stage2/unit2/se/sigmoid/Sigmoid/fq_output_0" type="FakeQuantize" version="opset1">
			<data levels="256" auto_broadcast="numpy" />
			<input>
				<port id="0" precision="FP32">
					<dim>1</dim>
					<dim>144</dim>
					<dim>1</dim>
					<dim>1</dim>
				</port>
				<port id="1" precision="FP32" />
				<port id="2" precision="FP32" />
				<port id="3" precision="FP32" />
				<port id="4" precision="FP32" />
			</input>
			<output>
				<port id="5" precision="FP32">
					<dim>1</dim>
					<dim>144</dim>
					<dim>1</dim>
					<dim>1</dim>
				</port>
			</output>
		</layer>
		<layer id="261" name="/backbone/features/stage2/unit2/se/Mul" type="Multiply" version="opset1">
			<data auto_broadcast="numpy" />
			<input>
				<port id="0" precision="FP32">
					<dim>1</dim>
					<dim>144</dim>
					<dim>56</dim>
					<dim>56</dim>
				</port>
				<port id="1" precision="FP32">
					<dim>1</dim>
					<dim>144</dim>
					<dim>1</dim>
					<dim>1</dim>
				</port>
			</input>
			<output>
				<port id="2" precision="FP32" names="/backbone/features/stage2/unit2/se/Mul_output_0">
					<dim>1</dim>
					<dim>144</dim>
					<dim>56</dim>
					<dim>56</dim>
				</port>
			</output>
		</layer>
		<layer id="262" name="Constant_44391_compressed" type="Const" version="opset1">
			<data element_type="f16" shape="" offset="21208" size="2" />
			<output>
				<port id="0" precision="FP16" />
			</output>
		</layer>
		<layer id="263" name="Constant_44391" type="Convert" version="opset1">
			<data destination_type="f32" />
			<rt_info>
				<attribute name="decompression" version="0" />
			</rt_info>
			<input>
				<port id="0" precision="FP16" />
			</input>
			<output>
				<port id="1" precision="FP32" />
			</output>
		</layer>
		<layer id="264" name="Constant_44392_compressed" type="Const" version="opset1">
			<data element_type="f16" shape="" offset="21210" size="2" />
			<output>
				<port id="0" precision="FP16" />
			</output>
		</layer>
		<layer id="265" name="Constant_44392" type="Convert" version="opset1">
			<data destination_type="f32" />
			<rt_info>
				<attribute name="decompression" version="0" />
			</rt_info>
			<input>
				<port id="0" precision="FP16" />
			</input>
			<output>
				<port id="1" precision="FP32" />
			</output>
		</layer>
		<layer id="266" name="Constant_44393_compressed" type="Const" version="opset1">
			<data element_type="f16" shape="" offset="21208" size="2" />
			<output>
				<port id="0" precision="FP16" />
			</output>
		</layer>
		<layer id="267" name="Constant_44393" type="Convert" version="opset1">
			<data destination_type="f32" />
			<rt_info>
				<attribute name="decompression" version="0" />
			</rt_info>
			<input>
				<port id="0" precision="FP16" />
			</input>
			<output>
				<port id="1" precision="FP32" />
			</output>
		</layer>
		<layer id="268" name="Constant_44394_compressed" type="Const" version="opset1">
			<data element_type="f16" shape="" offset="21210" size="2" />
			<output>
				<port id="0" precision="FP16" />
			</output>
		</layer>
		<layer id="269" name="Constant_44394" type="Convert" version="opset1">
			<data destination_type="f32" />
			<rt_info>
				<attribute name="decompression" version="0" />
			</rt_info>
			<input>
				<port id="0" precision="FP16" />
			</input>
			<output>
				<port id="1" precision="FP32" />
			</output>
		</layer>
		<layer id="270" name="/backbone/features/stage2/unit2/se/Mul/fq_output_0" type="FakeQuantize" version="opset1">
			<data levels="256" auto_broadcast="numpy" />
			<input>
				<port id="0" precision="FP32">
					<dim>1</dim>
					<dim>144</dim>
					<dim>56</dim>
					<dim>56</dim>
				</port>
				<port id="1" precision="FP32" />
				<port id="2" precision="FP32" />
				<port id="3" precision="FP32" />
				<port id="4" precision="FP32" />
			</input>
			<output>
				<port id="5" precision="FP32">
					<dim>1</dim>
					<dim>144</dim>
					<dim>56</dim>
					<dim>56</dim>
				</port>
			</output>
		</layer>
		<layer id="271" name="Constant_193135" type="Const" version="opset1">
			<data element_type="i8" shape="24, 144, 1, 1" offset="21212" size="3456" />
			<output>
				<port id="0" precision="I8">
					<dim>24</dim>
					<dim>144</dim>
					<dim>1</dim>
					<dim>1</dim>
				</port>
			</output>
		</layer>
		<layer id="272" name="Convert_193136" type="Convert" version="opset1">
			<data destination_type="f32" />
			<input>
				<port id="0" precision="I8">
					<dim>24</dim>
					<dim>144</dim>
					<dim>1</dim>
					<dim>1</dim>
				</port>
			</input>
			<output>
				<port id="1" precision="FP32">
					<dim>24</dim>
					<dim>144</dim>
					<dim>1</dim>
					<dim>1</dim>
				</port>
			</output>
		</layer>
		<layer id="273" name="Constant_193137_compressed" type="Const" version="opset1">
			<data element_type="f16" shape="24, 1, 1, 1" offset="24668" size="48" />
			<output>
				<port id="0" precision="FP16">
					<dim>24</dim>
					<dim>1</dim>
					<dim>1</dim>
					<dim>1</dim>
				</port>
			</output>
		</layer>
		<layer id="274" name="Constant_193137" type="Convert" version="opset1">
			<data destination_type="f32" />
			<rt_info>
				<attribute name="decompression" version="0" />
			</rt_info>
			<input>
				<port id="0" precision="FP16">
					<dim>24</dim>
					<dim>1</dim>
					<dim>1</dim>
					<dim>1</dim>
				</port>
			</input>
			<output>
				<port id="1" precision="FP32">
					<dim>24</dim>
					<dim>1</dim>
					<dim>1</dim>
					<dim>1</dim>
				</port>
			</output>
		</layer>
		<layer id="275" name="/backbone/features/stage2/unit2/conv3/conv/Conv/WithoutBiases/fq_weights_1" type="Multiply" version="opset1">
			<data auto_broadcast="numpy" />
			<input>
				<port id="0" precision="FP32">
					<dim>24</dim>
					<dim>144</dim>
					<dim>1</dim>
					<dim>1</dim>
				</port>
				<port id="1" precision="FP32">
					<dim>24</dim>
					<dim>1</dim>
					<dim>1</dim>
					<dim>1</dim>
				</port>
			</input>
			<output>
				<port id="2" precision="FP32">
					<dim>24</dim>
					<dim>144</dim>
					<dim>1</dim>
					<dim>1</dim>
				</port>
			</output>
		</layer>
		<layer id="276" name="/backbone/features/stage2/unit2/conv3/conv/Conv/WithoutBiases" type="Convolution" version="opset1">
			<data strides="1, 1" dilations="1, 1" pads_begin="0, 0" pads_end="0, 0" auto_pad="explicit" />
			<input>
				<port id="0" precision="FP32">
					<dim>1</dim>
					<dim>144</dim>
					<dim>56</dim>
					<dim>56</dim>
				</port>
				<port id="1" precision="FP32">
					<dim>24</dim>
					<dim>144</dim>
					<dim>1</dim>
					<dim>1</dim>
				</port>
			</input>
			<output>
				<port id="2" precision="FP32">
					<dim>1</dim>
					<dim>24</dim>
					<dim>56</dim>
					<dim>56</dim>
				</port>
			</output>
		</layer>
		<layer id="277" name="Reshape_604_compressed" type="Const" version="opset1">
			<data element_type="f16" shape="1, 24, 1, 1" offset="24716" size="48" />
			<output>
				<port id="0" precision="FP16">
					<dim>1</dim>
					<dim>24</dim>
					<dim>1</dim>
					<dim>1</dim>
				</port>
			</output>
		</layer>
		<layer id="278" name="Reshape_604" type="Convert" version="opset1">
			<data destination_type="f32" />
			<rt_info>
				<attribute name="decompression" version="0" />
			</rt_info>
			<input>
				<port id="0" precision="FP16">
					<dim>1</dim>
					<dim>24</dim>
					<dim>1</dim>
					<dim>1</dim>
				</port>
			</input>
			<output>
				<port id="1" precision="FP32">
					<dim>1</dim>
					<dim>24</dim>
					<dim>1</dim>
					<dim>1</dim>
				</port>
			</output>
		</layer>
		<layer id="279" name="/backbone/features/stage2/unit2/conv3/conv/Conv" type="Add" version="opset1">
			<data auto_broadcast="numpy" />
			<input>
				<port id="0" precision="FP32">
					<dim>1</dim>
					<dim>24</dim>
					<dim>56</dim>
					<dim>56</dim>
				</port>
				<port id="1" precision="FP32">
					<dim>1</dim>
					<dim>24</dim>
					<dim>1</dim>
					<dim>1</dim>
				</port>
			</input>
			<output>
				<port id="2" precision="FP32" names="/backbone/features/stage2/unit2/conv3/conv/Conv_output_0">
					<dim>1</dim>
					<dim>24</dim>
					<dim>56</dim>
					<dim>56</dim>
				</port>
			</output>
		</layer>
		<layer id="280" name="Constant_44401_compressed" type="Const" version="opset1">
			<data element_type="f16" shape="" offset="24764" size="2" />
			<output>
				<port id="0" precision="FP16" />
			</output>
		</layer>
		<layer id="281" name="Constant_44401" type="Convert" version="opset1">
			<data destination_type="f32" />
			<rt_info>
				<attribute name="decompression" version="0" />
			</rt_info>
			<input>
				<port id="0" precision="FP16" />
			</input>
			<output>
				<port id="1" precision="FP32" />
			</output>
		</layer>
		<layer id="282" name="Constant_44402_compressed" type="Const" version="opset1">
			<data element_type="f16" shape="" offset="24766" size="2" />
			<output>
				<port id="0" precision="FP16" />
			</output>
		</layer>
		<layer id="283" name="Constant_44402" type="Convert" version="opset1">
			<data destination_type="f32" />
			<rt_info>
				<attribute name="decompression" version="0" />
			</rt_info>
			<input>
				<port id="0" precision="FP16" />
			</input>
			<output>
				<port id="1" precision="FP32" />
			</output>
		</layer>
		<layer id="284" name="Constant_44403_compressed" type="Const" version="opset1">
			<data element_type="f16" shape="" offset="24764" size="2" />
			<output>
				<port id="0" precision="FP16" />
			</output>
		</layer>
		<layer id="285" name="Constant_44403" type="Convert" version="opset1">
			<data destination_type="f32" />
			<rt_info>
				<attribute name="decompression" version="0" />
			</rt_info>
			<input>
				<port id="0" precision="FP16" />
			</input>
			<output>
				<port id="1" precision="FP32" />
			</output>
		</layer>
		<layer id="286" name="Constant_44404_compressed" type="Const" version="opset1">
			<data element_type="f16" shape="" offset="24766" size="2" />
			<output>
				<port id="0" precision="FP16" />
			</output>
		</layer>
		<layer id="287" name="Constant_44404" type="Convert" version="opset1">
			<data destination_type="f32" />
			<rt_info>
				<attribute name="decompression" version="0" />
			</rt_info>
			<input>
				<port id="0" precision="FP16" />
			</input>
			<output>
				<port id="1" precision="FP32" />
			</output>
		</layer>
		<layer id="288" name="/backbone/features/stage2/unit2/conv3/conv/Conv/fq_output_0" type="FakeQuantize" version="opset1">
			<data levels="256" auto_broadcast="numpy" />
			<input>
				<port id="0" precision="FP32">
					<dim>1</dim>
					<dim>24</dim>
					<dim>56</dim>
					<dim>56</dim>
				</port>
				<port id="1" precision="FP32" />
				<port id="2" precision="FP32" />
				<port id="3" precision="FP32" />
				<port id="4" precision="FP32" />
			</input>
			<output>
				<port id="5" precision="FP32">
					<dim>1</dim>
					<dim>24</dim>
					<dim>56</dim>
					<dim>56</dim>
				</port>
			</output>
		</layer>
		<layer id="289" name="/backbone/features/stage2/unit2/Add" type="Add" version="opset1">
			<data auto_broadcast="numpy" />
			<input>
				<port id="0" precision="FP32">
					<dim>1</dim>
					<dim>24</dim>
					<dim>56</dim>
					<dim>56</dim>
				</port>
				<port id="1" precision="FP32">
					<dim>1</dim>
					<dim>24</dim>
					<dim>56</dim>
					<dim>56</dim>
				</port>
			</input>
			<output>
				<port id="2" precision="FP32" names="/backbone/features/stage2/unit2/Add_output_0">
					<dim>1</dim>
					<dim>24</dim>
					<dim>56</dim>
					<dim>56</dim>
				</port>
			</output>
		</layer>
		<layer id="290" name="Constant_44406_compressed" type="Const" version="opset1">
			<data element_type="f16" shape="" offset="24768" size="2" />
			<output>
				<port id="0" precision="FP16" />
			</output>
		</layer>
		<layer id="291" name="Constant_44406" type="Convert" version="opset1">
			<data destination_type="f32" />
			<rt_info>
				<attribute name="decompression" version="0" />
			</rt_info>
			<input>
				<port id="0" precision="FP16" />
			</input>
			<output>
				<port id="1" precision="FP32" />
			</output>
		</layer>
		<layer id="292" name="Constant_44407_compressed" type="Const" version="opset1">
			<data element_type="f16" shape="" offset="24770" size="2" />
			<output>
				<port id="0" precision="FP16" />
			</output>
		</layer>
		<layer id="293" name="Constant_44407" type="Convert" version="opset1">
			<data destination_type="f32" />
			<rt_info>
				<attribute name="decompression" version="0" />
			</rt_info>
			<input>
				<port id="0" precision="FP16" />
			</input>
			<output>
				<port id="1" precision="FP32" />
			</output>
		</layer>
		<layer id="294" name="Constant_44408_compressed" type="Const" version="opset1">
			<data element_type="f16" shape="" offset="24768" size="2" />
			<output>
				<port id="0" precision="FP16" />
			</output>
		</layer>
		<layer id="295" name="Constant_44408" type="Convert" version="opset1">
			<data destination_type="f32" />
			<rt_info>
				<attribute name="decompression" version="0" />
			</rt_info>
			<input>
				<port id="0" precision="FP16" />
			</input>
			<output>
				<port id="1" precision="FP32" />
			</output>
		</layer>
		<layer id="296" name="Constant_44409_compressed" type="Const" version="opset1">
			<data element_type="f16" shape="" offset="24770" size="2" />
			<output>
				<port id="0" precision="FP16" />
			</output>
		</layer>
		<layer id="297" name="Constant_44409" type="Convert" version="opset1">
			<data destination_type="f32" />
			<rt_info>
				<attribute name="decompression" version="0" />
			</rt_info>
			<input>
				<port id="0" precision="FP16" />
			</input>
			<output>
				<port id="1" precision="FP32" />
			</output>
		</layer>
		<layer id="298" name="/backbone/features/stage2/unit2/Add/fq_output_0" type="FakeQuantize" version="opset1">
			<data levels="256" auto_broadcast="numpy" />
			<input>
				<port id="0" precision="FP32">
					<dim>1</dim>
					<dim>24</dim>
					<dim>56</dim>
					<dim>56</dim>
				</port>
				<port id="1" precision="FP32" />
				<port id="2" precision="FP32" />
				<port id="3" precision="FP32" />
				<port id="4" precision="FP32" />
			</input>
			<output>
				<port id="5" precision="FP32">
					<dim>1</dim>
					<dim>24</dim>
					<dim>56</dim>
					<dim>56</dim>
				</port>
			</output>
		</layer>
		<layer id="299" name="Constant_193139" type="Const" version="opset1">
			<data element_type="i8" shape="144, 24, 1, 1" offset="24772" size="3456" />
			<output>
				<port id="0" precision="I8">
					<dim>144</dim>
					<dim>24</dim>
					<dim>1</dim>
					<dim>1</dim>
				</port>
			</output>
		</layer>
		<layer id="300" name="Convert_193140" type="Convert" version="opset1">
			<data destination_type="f32" />
			<input>
				<port id="0" precision="I8">
					<dim>144</dim>
					<dim>24</dim>
					<dim>1</dim>
					<dim>1</dim>
				</port>
			</input>
			<output>
				<port id="1" precision="FP32">
					<dim>144</dim>
					<dim>24</dim>
					<dim>1</dim>
					<dim>1</dim>
				</port>
			</output>
		</layer>
		<layer id="301" name="Constant_193141_compressed" type="Const" version="opset1">
			<data element_type="f16" shape="144, 1, 1, 1" offset="28228" size="288" />
			<output>
				<port id="0" precision="FP16">
					<dim>144</dim>
					<dim>1</dim>
					<dim>1</dim>
					<dim>1</dim>
				</port>
			</output>
		</layer>
		<layer id="302" name="Constant_193141" type="Convert" version="opset1">
			<data destination_type="f32" />
			<rt_info>
				<attribute name="decompression" version="0" />
			</rt_info>
			<input>
				<port id="0" precision="FP16">
					<dim>144</dim>
					<dim>1</dim>
					<dim>1</dim>
					<dim>1</dim>
				</port>
			</input>
			<output>
				<port id="1" precision="FP32">
					<dim>144</dim>
					<dim>1</dim>
					<dim>1</dim>
					<dim>1</dim>
				</port>
			</output>
		</layer>
		<layer id="303" name="/backbone/features/stage3/unit1/conv1/conv/Conv/WithoutBiases/fq_weights_1" type="Multiply" version="opset1">
			<data auto_broadcast="numpy" />
			<input>
				<port id="0" precision="FP32">
					<dim>144</dim>
					<dim>24</dim>
					<dim>1</dim>
					<dim>1</dim>
				</port>
				<port id="1" precision="FP32">
					<dim>144</dim>
					<dim>1</dim>
					<dim>1</dim>
					<dim>1</dim>
				</port>
			</input>
			<output>
				<port id="2" precision="FP32">
					<dim>144</dim>
					<dim>24</dim>
					<dim>1</dim>
					<dim>1</dim>
				</port>
			</output>
		</layer>
		<layer id="304" name="/backbone/features/stage3/unit1/conv1/conv/Conv/WithoutBiases" type="Convolution" version="opset1">
			<data strides="1, 1" dilations="1, 1" pads_begin="0, 0" pads_end="0, 0" auto_pad="explicit" />
			<input>
				<port id="0" precision="FP32">
					<dim>1</dim>
					<dim>24</dim>
					<dim>56</dim>
					<dim>56</dim>
				</port>
				<port id="1" precision="FP32">
					<dim>144</dim>
					<dim>24</dim>
					<dim>1</dim>
					<dim>1</dim>
				</port>
			</input>
			<output>
				<port id="2" precision="FP32">
					<dim>1</dim>
					<dim>144</dim>
					<dim>56</dim>
					<dim>56</dim>
				</port>
			</output>
		</layer>
		<layer id="305" name="Reshape_621_compressed" type="Const" version="opset1">
			<data element_type="f16" shape="1, 144, 1, 1" offset="28516" size="288" />
			<output>
				<port id="0" precision="FP16">
					<dim>1</dim>
					<dim>144</dim>
					<dim>1</dim>
					<dim>1</dim>
				</port>
			</output>
		</layer>
		<layer id="306" name="Reshape_621" type="Convert" version="opset1">
			<data destination_type="f32" />
			<rt_info>
				<attribute name="decompression" version="0" />
			</rt_info>
			<input>
				<port id="0" precision="FP16">
					<dim>1</dim>
					<dim>144</dim>
					<dim>1</dim>
					<dim>1</dim>
				</port>
			</input>
			<output>
				<port id="1" precision="FP32">
					<dim>1</dim>
					<dim>144</dim>
					<dim>1</dim>
					<dim>1</dim>
				</port>
			</output>
		</layer>
		<layer id="307" name="/backbone/features/stage3/unit1/conv1/conv/Conv" type="Add" version="opset1">
			<data auto_broadcast="numpy" />
			<input>
				<port id="0" precision="FP32">
					<dim>1</dim>
					<dim>144</dim>
					<dim>56</dim>
					<dim>56</dim>
				</port>
				<port id="1" precision="FP32">
					<dim>1</dim>
					<dim>144</dim>
					<dim>1</dim>
					<dim>1</dim>
				</port>
			</input>
			<output>
				<port id="2" precision="FP32" names="/backbone/features/stage3/unit1/conv1/conv/Conv_output_0">
					<dim>1</dim>
					<dim>144</dim>
					<dim>56</dim>
					<dim>56</dim>
				</port>
			</output>
		</layer>
		<layer id="308" name="/backbone/features/stage3/unit1/conv1/activate/Mul" type="Swish" version="opset4">
			<input>
				<port id="0" precision="FP32">
					<dim>1</dim>
					<dim>144</dim>
					<dim>56</dim>
					<dim>56</dim>
				</port>
			</input>
			<output>
				<port id="1" precision="FP32" names="/backbone/features/stage3/unit1/conv1/activate/Mul_output_0">
					<dim>1</dim>
					<dim>144</dim>
					<dim>56</dim>
					<dim>56</dim>
				</port>
			</output>
		</layer>
		<layer id="309" name="Constant_44416_compressed" type="Const" version="opset1">
			<data element_type="f16" shape="1, 144, 1, 1" offset="28804" size="288" />
			<output>
				<port id="0" precision="FP16">
					<dim>1</dim>
					<dim>144</dim>
					<dim>1</dim>
					<dim>1</dim>
				</port>
			</output>
		</layer>
		<layer id="310" name="Constant_44416" type="Convert" version="opset1">
			<data destination_type="f32" />
			<rt_info>
				<attribute name="decompression" version="0" />
			</rt_info>
			<input>
				<port id="0" precision="FP16">
					<dim>1</dim>
					<dim>144</dim>
					<dim>1</dim>
					<dim>1</dim>
				</port>
			</input>
			<output>
				<port id="1" precision="FP32">
					<dim>1</dim>
					<dim>144</dim>
					<dim>1</dim>
					<dim>1</dim>
				</port>
			</output>
		</layer>
		<layer id="311" name="Constant_44417_compressed" type="Const" version="opset1">
			<data element_type="f16" shape="1, 144, 1, 1" offset="29092" size="288" />
			<output>
				<port id="0" precision="FP16">
					<dim>1</dim>
					<dim>144</dim>
					<dim>1</dim>
					<dim>1</dim>
				</port>
			</output>
		</layer>
		<layer id="312" name="Constant_44417" type="Convert" version="opset1">
			<data destination_type="f32" />
			<rt_info>
				<attribute name="decompression" version="0" />
			</rt_info>
			<input>
				<port id="0" precision="FP16">
					<dim>1</dim>
					<dim>144</dim>
					<dim>1</dim>
					<dim>1</dim>
				</port>
			</input>
			<output>
				<port id="1" precision="FP32">
					<dim>1</dim>
					<dim>144</dim>
					<dim>1</dim>
					<dim>1</dim>
				</port>
			</output>
		</layer>
		<layer id="313" name="Constant_44418_compressed" type="Const" version="opset1">
			<data element_type="f16" shape="1, 144, 1, 1" offset="28804" size="288" />
			<output>
				<port id="0" precision="FP16">
					<dim>1</dim>
					<dim>144</dim>
					<dim>1</dim>
					<dim>1</dim>
				</port>
			</output>
		</layer>
		<layer id="314" name="Constant_44418" type="Convert" version="opset1">
			<data destination_type="f32" />
			<rt_info>
				<attribute name="decompression" version="0" />
			</rt_info>
			<input>
				<port id="0" precision="FP16">
					<dim>1</dim>
					<dim>144</dim>
					<dim>1</dim>
					<dim>1</dim>
				</port>
			</input>
			<output>
				<port id="1" precision="FP32">
					<dim>1</dim>
					<dim>144</dim>
					<dim>1</dim>
					<dim>1</dim>
				</port>
			</output>
		</layer>
		<layer id="315" name="Constant_44419_compressed" type="Const" version="opset1">
			<data element_type="f16" shape="1, 144, 1, 1" offset="29092" size="288" />
			<output>
				<port id="0" precision="FP16">
					<dim>1</dim>
					<dim>144</dim>
					<dim>1</dim>
					<dim>1</dim>
				</port>
			</output>
		</layer>
		<layer id="316" name="Constant_44419" type="Convert" version="opset1">
			<data destination_type="f32" />
			<rt_info>
				<attribute name="decompression" version="0" />
			</rt_info>
			<input>
				<port id="0" precision="FP16">
					<dim>1</dim>
					<dim>144</dim>
					<dim>1</dim>
					<dim>1</dim>
				</port>
			</input>
			<output>
				<port id="1" precision="FP32">
					<dim>1</dim>
					<dim>144</dim>
					<dim>1</dim>
					<dim>1</dim>
				</port>
			</output>
		</layer>
		<layer id="317" name="/backbone/features/stage3/unit1/conv1/activate/Mul/fq_output_0" type="FakeQuantize" version="opset1">
			<data levels="256" auto_broadcast="numpy" />
			<input>
				<port id="0" precision="FP32">
					<dim>1</dim>
					<dim>144</dim>
					<dim>56</dim>
					<dim>56</dim>
				</port>
				<port id="1" precision="FP32">
					<dim>1</dim>
					<dim>144</dim>
					<dim>1</dim>
					<dim>1</dim>
				</port>
				<port id="2" precision="FP32">
					<dim>1</dim>
					<dim>144</dim>
					<dim>1</dim>
					<dim>1</dim>
				</port>
				<port id="3" precision="FP32">
					<dim>1</dim>
					<dim>144</dim>
					<dim>1</dim>
					<dim>1</dim>
				</port>
				<port id="4" precision="FP32">
					<dim>1</dim>
					<dim>144</dim>
					<dim>1</dim>
					<dim>1</dim>
				</port>
			</input>
			<output>
				<port id="5" precision="FP32">
					<dim>1</dim>
					<dim>144</dim>
					<dim>56</dim>
					<dim>56</dim>
				</port>
			</output>
		</layer>
		<layer id="318" name="Constant_193143" type="Const" version="opset1">
			<data element_type="i8" shape="144, 1, 1, 5, 5" offset="29380" size="3600" />
			<output>
				<port id="0" precision="I8">
					<dim>144</dim>
					<dim>1</dim>
					<dim>1</dim>
					<dim>5</dim>
					<dim>5</dim>
				</port>
			</output>
		</layer>
		<layer id="319" name="Convert_193144" type="Convert" version="opset1">
			<data destination_type="f32" />
			<input>
				<port id="0" precision="I8">
					<dim>144</dim>
					<dim>1</dim>
					<dim>1</dim>
					<dim>5</dim>
					<dim>5</dim>
				</port>
			</input>
			<output>
				<port id="1" precision="FP32">
					<dim>144</dim>
					<dim>1</dim>
					<dim>1</dim>
					<dim>5</dim>
					<dim>5</dim>
				</port>
			</output>
		</layer>
		<layer id="320" name="Constant_193145_compressed" type="Const" version="opset1">
			<data element_type="f16" shape="144, 1, 1, 1, 1" offset="32980" size="288" />
			<output>
				<port id="0" precision="FP16">
					<dim>144</dim>
					<dim>1</dim>
					<dim>1</dim>
					<dim>1</dim>
					<dim>1</dim>
				</port>
			</output>
		</layer>
		<layer id="321" name="Constant_193145" type="Convert" version="opset1">
			<data destination_type="f32" />
			<rt_info>
				<attribute name="decompression" version="0" />
			</rt_info>
			<input>
				<port id="0" precision="FP16">
					<dim>144</dim>
					<dim>1</dim>
					<dim>1</dim>
					<dim>1</dim>
					<dim>1</dim>
				</port>
			</input>
			<output>
				<port id="1" precision="FP32">
					<dim>144</dim>
					<dim>1</dim>
					<dim>1</dim>
					<dim>1</dim>
					<dim>1</dim>
				</port>
			</output>
		</layer>
		<layer id="322" name="/backbone/features/stage3/unit1/conv2/conv/Conv/WithoutBiases/fq_weights_1" type="Multiply" version="opset1">
			<data auto_broadcast="numpy" />
			<input>
				<port id="0" precision="FP32">
					<dim>144</dim>
					<dim>1</dim>
					<dim>1</dim>
					<dim>5</dim>
					<dim>5</dim>
				</port>
				<port id="1" precision="FP32">
					<dim>144</dim>
					<dim>1</dim>
					<dim>1</dim>
					<dim>1</dim>
					<dim>1</dim>
				</port>
			</input>
			<output>
				<port id="2" precision="FP32">
					<dim>144</dim>
					<dim>1</dim>
					<dim>1</dim>
					<dim>5</dim>
					<dim>5</dim>
				</port>
			</output>
		</layer>
		<layer id="323" name="/backbone/features/stage3/unit1/conv2/conv/Conv/WithoutBiases" type="GroupConvolution" version="opset1">
			<data strides="2, 2" pads_begin="2, 2" pads_end="2, 2" dilations="1, 1" auto_pad="explicit" />
			<input>
				<port id="0" precision="FP32">
					<dim>1</dim>
					<dim>144</dim>
					<dim>56</dim>
					<dim>56</dim>
				</port>
				<port id="1" precision="FP32">
					<dim>144</dim>
					<dim>1</dim>
					<dim>1</dim>
					<dim>5</dim>
					<dim>5</dim>
				</port>
			</input>
			<output>
				<port id="2" precision="FP32">
					<dim>1</dim>
					<dim>144</dim>
					<dim>28</dim>
					<dim>28</dim>
				</port>
			</output>
		</layer>
		<layer id="324" name="Reshape_686_compressed" type="Const" version="opset1">
			<data element_type="f16" shape="1, 144, 1, 1" offset="33268" size="288" />
			<output>
				<port id="0" precision="FP16">
					<dim>1</dim>
					<dim>144</dim>
					<dim>1</dim>
					<dim>1</dim>
				</port>
			</output>
		</layer>
		<layer id="325" name="Reshape_686" type="Convert" version="opset1">
			<data destination_type="f32" />
			<rt_info>
				<attribute name="decompression" version="0" />
			</rt_info>
			<input>
				<port id="0" precision="FP16">
					<dim>1</dim>
					<dim>144</dim>
					<dim>1</dim>
					<dim>1</dim>
				</port>
			</input>
			<output>
				<port id="1" precision="FP32">
					<dim>1</dim>
					<dim>144</dim>
					<dim>1</dim>
					<dim>1</dim>
				</port>
			</output>
		</layer>
		<layer id="326" name="/backbone/features/stage3/unit1/conv2/conv/Conv" type="Add" version="opset1">
			<data auto_broadcast="numpy" />
			<input>
				<port id="0" precision="FP32">
					<dim>1</dim>
					<dim>144</dim>
					<dim>28</dim>
					<dim>28</dim>
				</port>
				<port id="1" precision="FP32">
					<dim>1</dim>
					<dim>144</dim>
					<dim>1</dim>
					<dim>1</dim>
				</port>
			</input>
			<output>
				<port id="2" precision="FP32" names="/backbone/features/stage3/unit1/conv2/conv/Conv_output_0">
					<dim>1</dim>
					<dim>144</dim>
					<dim>28</dim>
					<dim>28</dim>
				</port>
			</output>
		</layer>
		<layer id="327" name="/backbone/features/stage3/unit1/conv2/activate/Mul" type="Swish" version="opset4">
			<input>
				<port id="0" precision="FP32">
					<dim>1</dim>
					<dim>144</dim>
					<dim>28</dim>
					<dim>28</dim>
				</port>
			</input>
			<output>
				<port id="1" precision="FP32" names="/backbone/features/stage3/unit1/conv2/activate/Mul_output_0">
					<dim>1</dim>
					<dim>144</dim>
					<dim>28</dim>
					<dim>28</dim>
				</port>
			</output>
		</layer>
		<layer id="328" name="Constant_44426_compressed" type="Const" version="opset1">
			<data element_type="f16" shape="" offset="33556" size="2" />
			<output>
				<port id="0" precision="FP16" />
			</output>
		</layer>
		<layer id="329" name="Constant_44426" type="Convert" version="opset1">
			<data destination_type="f32" />
			<rt_info>
				<attribute name="decompression" version="0" />
			</rt_info>
			<input>
				<port id="0" precision="FP16" />
			</input>
			<output>
				<port id="1" precision="FP32" />
			</output>
		</layer>
		<layer id="330" name="Constant_44427_compressed" type="Const" version="opset1">
			<data element_type="f16" shape="" offset="33558" size="2" />
			<output>
				<port id="0" precision="FP16" />
			</output>
		</layer>
		<layer id="331" name="Constant_44427" type="Convert" version="opset1">
			<data destination_type="f32" />
			<rt_info>
				<attribute name="decompression" version="0" />
			</rt_info>
			<input>
				<port id="0" precision="FP16" />
			</input>
			<output>
				<port id="1" precision="FP32" />
			</output>
		</layer>
		<layer id="332" name="Constant_44428_compressed" type="Const" version="opset1">
			<data element_type="f16" shape="" offset="33556" size="2" />
			<output>
				<port id="0" precision="FP16" />
			</output>
		</layer>
		<layer id="333" name="Constant_44428" type="Convert" version="opset1">
			<data destination_type="f32" />
			<rt_info>
				<attribute name="decompression" version="0" />
			</rt_info>
			<input>
				<port id="0" precision="FP16" />
			</input>
			<output>
				<port id="1" precision="FP32" />
			</output>
		</layer>
		<layer id="334" name="Constant_44429_compressed" type="Const" version="opset1">
			<data element_type="f16" shape="" offset="33558" size="2" />
			<output>
				<port id="0" precision="FP16" />
			</output>
		</layer>
		<layer id="335" name="Constant_44429" type="Convert" version="opset1">
			<data destination_type="f32" />
			<rt_info>
				<attribute name="decompression" version="0" />
			</rt_info>
			<input>
				<port id="0" precision="FP16" />
			</input>
			<output>
				<port id="1" precision="FP32" />
			</output>
		</layer>
		<layer id="336" name="/backbone/features/stage3/unit1/conv2/activate/Mul/fq_output_0" type="FakeQuantize" version="opset1">
			<data levels="256" auto_broadcast="numpy" />
			<input>
				<port id="0" precision="FP32">
					<dim>1</dim>
					<dim>144</dim>
					<dim>28</dim>
					<dim>28</dim>
				</port>
				<port id="1" precision="FP32" />
				<port id="2" precision="FP32" />
				<port id="3" precision="FP32" />
				<port id="4" precision="FP32" />
			</input>
			<output>
				<port id="5" precision="FP32">
					<dim>1</dim>
					<dim>144</dim>
					<dim>28</dim>
					<dim>28</dim>
				</port>
			</output>
		</layer>
		<layer id="337" name="Range_698" type="Const" version="opset1">
			<data element_type="i64" shape="2" offset="1556" size="16" />
			<output>
				<port id="0" precision="I64">
					<dim>2</dim>
				</port>
			</output>
		</layer>
		<layer id="338" name="/backbone/features/stage3/unit1/se/pool/GlobalAveragePool" type="ReduceMean" version="opset1">
			<data keep_dims="true" />
			<input>
				<port id="0" precision="FP32">
					<dim>1</dim>
					<dim>144</dim>
					<dim>28</dim>
					<dim>28</dim>
				</port>
				<port id="1" precision="I64">
					<dim>2</dim>
				</port>
			</input>
			<output>
				<port id="2" precision="FP32" names="/backbone/features/stage3/unit1/se/pool/GlobalAveragePool_output_0">
					<dim>1</dim>
					<dim>144</dim>
					<dim>1</dim>
					<dim>1</dim>
				</port>
			</output>
		</layer>
		<layer id="339" name="features.stage3.unit1.se.conv1.weight_compressed" type="Const" version="opset1">
			<data element_type="f16" shape="6, 144, 1, 1" offset="33560" size="1728" />
			<output>
				<port id="0" precision="FP16" names="features.stage3.unit1.se.conv1.weight">
					<dim>6</dim>
					<dim>144</dim>
					<dim>1</dim>
					<dim>1</dim>
				</port>
			</output>
		</layer>
		<layer id="340" name="features.stage3.unit1.se.conv1.weight" type="Convert" version="opset1">
			<data destination_type="f32" />
			<rt_info>
				<attribute name="decompression" version="0" />
			</rt_info>
			<input>
				<port id="0" precision="FP16">
					<dim>6</dim>
					<dim>144</dim>
					<dim>1</dim>
					<dim>1</dim>
				</port>
			</input>
			<output>
				<port id="1" precision="FP32">
					<dim>6</dim>
					<dim>144</dim>
					<dim>1</dim>
					<dim>1</dim>
				</port>
			</output>
		</layer>
		<layer id="341" name="/backbone/features/stage3/unit1/se/conv1/Conv/WithoutBiases" type="Convolution" version="opset1">
			<data strides="1, 1" dilations="1, 1" pads_begin="0, 0" pads_end="0, 0" auto_pad="explicit" />
			<input>
				<port id="0" precision="FP32">
					<dim>1</dim>
					<dim>144</dim>
					<dim>1</dim>
					<dim>1</dim>
				</port>
				<port id="1" precision="FP32">
					<dim>6</dim>
					<dim>144</dim>
					<dim>1</dim>
					<dim>1</dim>
				</port>
			</input>
			<output>
				<port id="2" precision="FP32">
					<dim>1</dim>
					<dim>6</dim>
					<dim>1</dim>
					<dim>1</dim>
				</port>
			</output>
		</layer>
		<layer id="342" name="Reshape_716_compressed" type="Const" version="opset1">
			<data element_type="f16" shape="1, 6, 1, 1" offset="35288" size="12" />
			<output>
				<port id="0" precision="FP16">
					<dim>1</dim>
					<dim>6</dim>
					<dim>1</dim>
					<dim>1</dim>
				</port>
			</output>
		</layer>
		<layer id="343" name="Reshape_716" type="Convert" version="opset1">
			<data destination_type="f32" />
			<rt_info>
				<attribute name="decompression" version="0" />
			</rt_info>
			<input>
				<port id="0" precision="FP16">
					<dim>1</dim>
					<dim>6</dim>
					<dim>1</dim>
					<dim>1</dim>
				</port>
			</input>
			<output>
				<port id="1" precision="FP32">
					<dim>1</dim>
					<dim>6</dim>
					<dim>1</dim>
					<dim>1</dim>
				</port>
			</output>
		</layer>
		<layer id="344" name="/backbone/features/stage3/unit1/se/conv1/Conv" type="Add" version="opset1">
			<data auto_broadcast="numpy" />
			<input>
				<port id="0" precision="FP32">
					<dim>1</dim>
					<dim>6</dim>
					<dim>1</dim>
					<dim>1</dim>
				</port>
				<port id="1" precision="FP32">
					<dim>1</dim>
					<dim>6</dim>
					<dim>1</dim>
					<dim>1</dim>
				</port>
			</input>
			<output>
				<port id="2" precision="FP32" names="/backbone/features/stage3/unit1/se/conv1/Conv_output_0">
					<dim>1</dim>
					<dim>6</dim>
					<dim>1</dim>
					<dim>1</dim>
				</port>
			</output>
		</layer>
		<layer id="345" name="/backbone/features/stage3/unit1/se/activ/Mul" type="Swish" version="opset4">
			<input>
				<port id="0" precision="FP32">
					<dim>1</dim>
					<dim>6</dim>
					<dim>1</dim>
					<dim>1</dim>
				</port>
			</input>
			<output>
				<port id="1" precision="FP32" names="/backbone/features/stage3/unit1/se/activ/Mul_output_0">
					<dim>1</dim>
					<dim>6</dim>
					<dim>1</dim>
					<dim>1</dim>
				</port>
			</output>
		</layer>
		<layer id="346" name="features.stage3.unit1.se.conv2.weight_compressed" type="Const" version="opset1">
			<data element_type="f16" shape="144, 6, 1, 1" offset="35300" size="1728" />
			<output>
				<port id="0" precision="FP16" names="features.stage3.unit1.se.conv2.weight">
					<dim>144</dim>
					<dim>6</dim>
					<dim>1</dim>
					<dim>1</dim>
				</port>
			</output>
		</layer>
		<layer id="347" name="features.stage3.unit1.se.conv2.weight" type="Convert" version="opset1">
			<data destination_type="f32" />
			<rt_info>
				<attribute name="decompression" version="0" />
			</rt_info>
			<input>
				<port id="0" precision="FP16">
					<dim>144</dim>
					<dim>6</dim>
					<dim>1</dim>
					<dim>1</dim>
				</port>
			</input>
			<output>
				<port id="1" precision="FP32">
					<dim>144</dim>
					<dim>6</dim>
					<dim>1</dim>
					<dim>1</dim>
				</port>
			</output>
		</layer>
		<layer id="348" name="/backbone/features/stage3/unit1/se/conv2/Conv/WithoutBiases" type="Convolution" version="opset1">
			<data strides="1, 1" dilations="1, 1" pads_begin="0, 0" pads_end="0, 0" auto_pad="explicit" />
			<input>
				<port id="0" precision="FP32">
					<dim>1</dim>
					<dim>6</dim>
					<dim>1</dim>
					<dim>1</dim>
				</port>
				<port id="1" precision="FP32">
					<dim>144</dim>
					<dim>6</dim>
					<dim>1</dim>
					<dim>1</dim>
				</port>
			</input>
			<output>
				<port id="2" precision="FP32">
					<dim>1</dim>
					<dim>144</dim>
					<dim>1</dim>
					<dim>1</dim>
				</port>
			</output>
		</layer>
		<layer id="349" name="Reshape_734_compressed" type="Const" version="opset1">
			<data element_type="f16" shape="1, 144, 1, 1" offset="37028" size="288" />
			<output>
				<port id="0" precision="FP16">
					<dim>1</dim>
					<dim>144</dim>
					<dim>1</dim>
					<dim>1</dim>
				</port>
			</output>
		</layer>
		<layer id="350" name="Reshape_734" type="Convert" version="opset1">
			<data destination_type="f32" />
			<rt_info>
				<attribute name="decompression" version="0" />
			</rt_info>
			<input>
				<port id="0" precision="FP16">
					<dim>1</dim>
					<dim>144</dim>
					<dim>1</dim>
					<dim>1</dim>
				</port>
			</input>
			<output>
				<port id="1" precision="FP32">
					<dim>1</dim>
					<dim>144</dim>
					<dim>1</dim>
					<dim>1</dim>
				</port>
			</output>
		</layer>
		<layer id="351" name="/backbone/features/stage3/unit1/se/conv2/Conv" type="Add" version="opset1">
			<data auto_broadcast="numpy" />
			<input>
				<port id="0" precision="FP32">
					<dim>1</dim>
					<dim>144</dim>
					<dim>1</dim>
					<dim>1</dim>
				</port>
				<port id="1" precision="FP32">
					<dim>1</dim>
					<dim>144</dim>
					<dim>1</dim>
					<dim>1</dim>
				</port>
			</input>
			<output>
				<port id="2" precision="FP32" names="/backbone/features/stage3/unit1/se/conv2/Conv_output_0">
					<dim>1</dim>
					<dim>144</dim>
					<dim>1</dim>
					<dim>1</dim>
				</port>
			</output>
		</layer>
		<layer id="352" name="/backbone/features/stage3/unit1/se/sigmoid/Sigmoid" type="Sigmoid" version="opset1">
			<input>
				<port id="0" precision="FP32">
					<dim>1</dim>
					<dim>144</dim>
					<dim>1</dim>
					<dim>1</dim>
				</port>
			</input>
			<output>
				<port id="1" precision="FP32" names="/backbone/features/stage3/unit1/se/sigmoid/Sigmoid_output_0">
					<dim>1</dim>
					<dim>144</dim>
					<dim>1</dim>
					<dim>1</dim>
				</port>
			</output>
		</layer>
		<layer id="353" name="Constant_44431_compressed" type="Const" version="opset1">
			<data element_type="f16" shape="" offset="2676" size="2" />
			<output>
				<port id="0" precision="FP16" />
			</output>
		</layer>
		<layer id="354" name="Constant_44431" type="Convert" version="opset1">
			<data destination_type="f32" />
			<rt_info>
				<attribute name="decompression" version="0" />
			</rt_info>
			<input>
				<port id="0" precision="FP16" />
			</input>
			<output>
				<port id="1" precision="FP32" />
			</output>
		</layer>
		<layer id="355" name="Constant_44432_compressed" type="Const" version="opset1">
			<data element_type="f16" shape="" offset="37316" size="2" />
			<output>
				<port id="0" precision="FP16" />
			</output>
		</layer>
		<layer id="356" name="Constant_44432" type="Convert" version="opset1">
			<data destination_type="f32" />
			<rt_info>
				<attribute name="decompression" version="0" />
			</rt_info>
			<input>
				<port id="0" precision="FP16" />
			</input>
			<output>
				<port id="1" precision="FP32" />
			</output>
		</layer>
		<layer id="357" name="Constant_44433_compressed" type="Const" version="opset1">
			<data element_type="f16" shape="" offset="2676" size="2" />
			<output>
				<port id="0" precision="FP16" />
			</output>
		</layer>
		<layer id="358" name="Constant_44433" type="Convert" version="opset1">
			<data destination_type="f32" />
			<rt_info>
				<attribute name="decompression" version="0" />
			</rt_info>
			<input>
				<port id="0" precision="FP16" />
			</input>
			<output>
				<port id="1" precision="FP32" />
			</output>
		</layer>
		<layer id="359" name="Constant_44434_compressed" type="Const" version="opset1">
			<data element_type="f16" shape="" offset="37316" size="2" />
			<output>
				<port id="0" precision="FP16" />
			</output>
		</layer>
		<layer id="360" name="Constant_44434" type="Convert" version="opset1">
			<data destination_type="f32" />
			<rt_info>
				<attribute name="decompression" version="0" />
			</rt_info>
			<input>
				<port id="0" precision="FP16" />
			</input>
			<output>
				<port id="1" precision="FP32" />
			</output>
		</layer>
		<layer id="361" name="/backbone/features/stage3/unit1/se/sigmoid/Sigmoid/fq_output_0" type="FakeQuantize" version="opset1">
			<data levels="256" auto_broadcast="numpy" />
			<input>
				<port id="0" precision="FP32">
					<dim>1</dim>
					<dim>144</dim>
					<dim>1</dim>
					<dim>1</dim>
				</port>
				<port id="1" precision="FP32" />
				<port id="2" precision="FP32" />
				<port id="3" precision="FP32" />
				<port id="4" precision="FP32" />
			</input>
			<output>
				<port id="5" precision="FP32">
					<dim>1</dim>
					<dim>144</dim>
					<dim>1</dim>
					<dim>1</dim>
				</port>
			</output>
		</layer>
		<layer id="362" name="/backbone/features/stage3/unit1/se/Mul" type="Multiply" version="opset1">
			<data auto_broadcast="numpy" />
			<input>
				<port id="0" precision="FP32">
					<dim>1</dim>
					<dim>144</dim>
					<dim>28</dim>
					<dim>28</dim>
				</port>
				<port id="1" precision="FP32">
					<dim>1</dim>
					<dim>144</dim>
					<dim>1</dim>
					<dim>1</dim>
				</port>
			</input>
			<output>
				<port id="2" precision="FP32" names="/backbone/features/stage3/unit1/se/Mul_output_0">
					<dim>1</dim>
					<dim>144</dim>
					<dim>28</dim>
					<dim>28</dim>
				</port>
			</output>
		</layer>
		<layer id="363" name="Constant_44436_compressed" type="Const" version="opset1">
			<data element_type="f16" shape="" offset="37318" size="2" />
			<output>
				<port id="0" precision="FP16" />
			</output>
		</layer>
		<layer id="364" name="Constant_44436" type="Convert" version="opset1">
			<data destination_type="f32" />
			<rt_info>
				<attribute name="decompression" version="0" />
			</rt_info>
			<input>
				<port id="0" precision="FP16" />
			</input>
			<output>
				<port id="1" precision="FP32" />
			</output>
		</layer>
		<layer id="365" name="Constant_44437_compressed" type="Const" version="opset1">
			<data element_type="f16" shape="" offset="37320" size="2" />
			<output>
				<port id="0" precision="FP16" />
			</output>
		</layer>
		<layer id="366" name="Constant_44437" type="Convert" version="opset1">
			<data destination_type="f32" />
			<rt_info>
				<attribute name="decompression" version="0" />
			</rt_info>
			<input>
				<port id="0" precision="FP16" />
			</input>
			<output>
				<port id="1" precision="FP32" />
			</output>
		</layer>
		<layer id="367" name="Constant_44438_compressed" type="Const" version="opset1">
			<data element_type="f16" shape="" offset="37318" size="2" />
			<output>
				<port id="0" precision="FP16" />
			</output>
		</layer>
		<layer id="368" name="Constant_44438" type="Convert" version="opset1">
			<data destination_type="f32" />
			<rt_info>
				<attribute name="decompression" version="0" />
			</rt_info>
			<input>
				<port id="0" precision="FP16" />
			</input>
			<output>
				<port id="1" precision="FP32" />
			</output>
		</layer>
		<layer id="369" name="Constant_44439_compressed" type="Const" version="opset1">
			<data element_type="f16" shape="" offset="37320" size="2" />
			<output>
…
		<edge from-layer="1006" from-port="1" to-layer="1013" to-port="1" />
		<edge from-layer="1007" from-port="0" to-layer="1008" to-port="0" />
		<edge from-layer="1008" from-port="1" to-layer="1013" to-port="2" />
		<edge from-layer="1009" from-port="0" to-layer="1010" to-port="0" />
		<edge from-layer="1010" from-port="1" to-layer="1013" to-port="3" />
		<edge from-layer="1011" from-port="0" to-layer="1012" to-port="0" />
		<edge from-layer="1012" from-port="1" to-layer="1013" to-port="4" />
		<edge from-layer="1013" from-port="5" to-layer="1039" to-port="0" />
		<edge from-layer="1013" from-port="5" to-layer="1015" to-port="0" />
		<edge from-layer="1014" from-port="0" to-layer="1015" to-port="1" />
		<edge from-layer="1015" from-port="2" to-layer="1018" to-port="0" />
		<edge from-layer="1016" from-port="0" to-layer="1017" to-port="0" />
		<edge from-layer="1017" from-port="1" to-layer="1018" to-port="1" />
		<edge from-layer="1018" from-port="2" to-layer="1021" to-port="0" />
		<edge from-layer="1019" from-port="0" to-layer="1020" to-port="0" />
		<edge from-layer="1020" from-port="1" to-layer="1021" to-port="1" />
		<edge from-layer="1021" from-port="2" to-layer="1022" to-port="0" />
		<edge from-layer="1022" from-port="1" to-layer="1025" to-port="0" />
		<edge from-layer="1023" from-port="0" to-layer="1024" to-port="0" />
		<edge from-layer="1024" from-port="1" to-layer="1025" to-port="1" />
		<edge from-layer="1025" from-port="2" to-layer="1028" to-port="0" />
		<edge from-layer="1026" from-port="0" to-layer="1027" to-port="0" />
		<edge from-layer="1027" from-port="1" to-layer="1028" to-port="1" />
		<edge from-layer="1028" from-port="2" to-layer="1029" to-port="0" />
		<edge from-layer="1029" from-port="1" to-layer="1038" to-port="0" />
		<edge from-layer="1030" from-port="0" to-layer="1031" to-port="0" />
		<edge from-layer="1031" from-port="1" to-layer="1038" to-port="1" />
		<edge from-layer="1032" from-port="0" to-layer="1033" to-port="0" />
		<edge from-layer="1033" from-port="1" to-layer="1038" to-port="2" />
		<edge from-layer="1034" from-port="0" to-layer="1035" to-port="0" />
		<edge from-layer="1035" from-port="1" to-layer="1038" to-port="3" />
		<edge from-layer="1036" from-port="0" to-layer="1037" to-port="0" />
		<edge from-layer="1037" from-port="1" to-layer="1038" to-port="4" />
		<edge from-layer="1038" from-port="5" to-layer="1039" to-port="1" />
		<edge from-layer="1039" from-port="2" to-layer="1048" to-port="0" />
		<edge from-layer="1040" from-port="0" to-layer="1041" to-port="0" />
		<edge from-layer="1041" from-port="1" to-layer="1048" to-port="1" />
		<edge from-layer="1042" from-port="0" to-layer="1043" to-port="0" />
		<edge from-layer="1043" from-port="1" to-layer="1048" to-port="2" />
		<edge from-layer="1044" from-port="0" to-layer="1045" to-port="0" />
		<edge from-layer="1045" from-port="1" to-layer="1048" to-port="3" />
		<edge from-layer="1046" from-port="0" to-layer="1047" to-port="0" />
		<edge from-layer="1047" from-port="1" to-layer="1048" to-port="4" />
		<edge from-layer="1048" from-port="5" to-layer="1054" to-port="0" />
		<edge from-layer="1049" from-port="0" to-layer="1050" to-port="0" />
		<edge from-layer="1050" from-port="1" to-layer="1053" to-port="0" />
		<edge from-layer="1051" from-port="0" to-layer="1052" to-port="0" />
		<edge from-layer="1052" from-port="1" to-layer="1053" to-port="1" />
		<edge from-layer="1053" from-port="2" to-layer="1054" to-port="1" />
		<edge from-layer="1054" from-port="2" to-layer="1057" to-port="0" />
		<edge from-layer="1055" from-port="0" to-layer="1056" to-port="0" />
		<edge from-layer="1056" from-port="1" to-layer="1057" to-port="1" />
		<edge from-layer="1057" from-port="2" to-layer="1066" to-port="0" />
		<edge from-layer="1058" from-port="0" to-layer="1059" to-port="0" />
		<edge from-layer="1059" from-port="1" to-layer="1066" to-port="1" />
		<edge from-layer="1060" from-port="0" to-layer="1061" to-port="0" />
		<edge from-layer="1061" from-port="1" to-layer="1066" to-port="2" />
		<edge from-layer="1062" from-port="0" to-layer="1063" to-port="0" />
		<edge from-layer="1063" from-port="1" to-layer="1066" to-port="3" />
		<edge from-layer="1064" from-port="0" to-layer="1065" to-port="0" />
		<edge from-layer="1065" from-port="1" to-layer="1066" to-port="4" />
		<edge from-layer="1066" from-port="5" to-layer="1067" to-port="0" />
		<edge from-layer="1067" from-port="2" to-layer="1076" to-port="0" />
		<edge from-layer="1068" from-port="0" to-layer="1069" to-port="0" />
		<edge from-layer="1069" from-port="1" to-layer="1076" to-port="1" />
		<edge from-layer="1070" from-port="0" to-layer="1071" to-port="0" />
		<edge from-layer="1071" from-port="1" to-layer="1076" to-port="2" />
		<edge from-layer="1072" from-port="0" to-layer="1073" to-port="0" />
		<edge from-layer="1073" from-port="1" to-layer="1076" to-port="3" />
		<edge from-layer="1074" from-port="0" to-layer="1075" to-port="0" />
		<edge from-layer="1075" from-port="1" to-layer="1076" to-port="4" />
		<edge from-layer="1076" from-port="5" to-layer="1082" to-port="0" />
		<edge from-layer="1077" from-port="0" to-layer="1078" to-port="0" />
		<edge from-layer="1078" from-port="1" to-layer="1081" to-port="0" />
		<edge from-layer="1079" from-port="0" to-layer="1080" to-port="0" />
		<edge from-layer="1080" from-port="1" to-layer="1081" to-port="1" />
		<edge from-layer="1081" from-port="2" to-layer="1082" to-port="1" />
		<edge from-layer="1082" from-port="2" to-layer="1085" to-port="0" />
		<edge from-layer="1083" from-port="0" to-layer="1084" to-port="0" />
		<edge from-layer="1084" from-port="1" to-layer="1085" to-port="1" />
		<edge from-layer="1085" from-port="2" to-layer="1086" to-port="0" />
		<edge from-layer="1086" from-port="1" to-layer="1095" to-port="0" />
		<edge from-layer="1087" from-port="0" to-layer="1088" to-port="0" />
		<edge from-layer="1088" from-port="1" to-layer="1095" to-port="1" />
		<edge from-layer="1089" from-port="0" to-layer="1090" to-port="0" />
		<edge from-layer="1090" from-port="1" to-layer="1095" to-port="2" />
		<edge from-layer="1091" from-port="0" to-layer="1092" to-port="0" />
		<edge from-layer="1092" from-port="1" to-layer="1095" to-port="3" />
		<edge from-layer="1093" from-port="0" to-layer="1094" to-port="0" />
		<edge from-layer="1094" from-port="1" to-layer="1095" to-port="4" />
		<edge from-layer="1095" from-port="5" to-layer="1101" to-port="0" />
		<edge from-layer="1096" from-port="0" to-layer="1097" to-port="0" />
		<edge from-layer="1097" from-port="1" to-layer="1100" to-port="0" />
		<edge from-layer="1098" from-port="0" to-layer="1099" to-port="0" />
		<edge from-layer="1099" from-port="1" to-layer="1100" to-port="1" />
		<edge from-layer="1100" from-port="2" to-layer="1101" to-port="1" />
		<edge from-layer="1101" from-port="2" to-layer="1104" to-port="0" />
		<edge from-layer="1102" from-port="0" to-layer="1103" to-port="0" />
		<edge from-layer="1103" from-port="1" to-layer="1104" to-port="1" />
		<edge from-layer="1104" from-port="2" to-layer="1105" to-port="0" />
		<edge from-layer="1105" from-port="1" to-layer="1114" to-port="0" />
		<edge from-layer="1106" from-port="0" to-layer="1107" to-port="0" />
		<edge from-layer="1107" from-port="1" to-layer="1114" to-port="1" />
		<edge from-layer="1108" from-port="0" to-layer="1109" to-port="0" />
		<edge from-layer="1109" from-port="1" to-layer="1114" to-port="2" />
		<edge from-layer="1110" from-port="0" to-layer="1111" to-port="0" />
		<edge from-layer="1111" from-port="1" to-layer="1114" to-port="3" />
		<edge from-layer="1112" from-port="0" to-layer="1113" to-port="0" />
		<edge from-layer="1113" from-port="1" to-layer="1114" to-port="4" />
		<edge from-layer="1114" from-port="5" to-layer="1116" to-port="0" />
		<edge from-layer="1114" from-port="5" to-layer="1140" to-port="0" />
		<edge from-layer="1115" from-port="0" to-layer="1116" to-port="1" />
		<edge from-layer="1116" from-port="2" to-layer="1119" to-port="0" />
		<edge from-layer="1117" from-port="0" to-layer="1118" to-port="0" />
		<edge from-layer="1118" from-port="1" to-layer="1119" to-port="1" />
		<edge from-layer="1119" from-port="2" to-layer="1122" to-port="0" />
		<edge from-layer="1120" from-port="0" to-layer="1121" to-port="0" />
		<edge from-layer="1121" from-port="1" to-layer="1122" to-port="1" />
		<edge from-layer="1122" from-port="2" to-layer="1123" to-port="0" />
		<edge from-layer="1123" from-port="1" to-layer="1126" to-port="0" />
		<edge from-layer="1124" from-port="0" to-layer="1125" to-port="0" />
		<edge from-layer="1125" from-port="1" to-layer="1126" to-port="1" />
		<edge from-layer="1126" from-port="2" to-layer="1129" to-port="0" />
		<edge from-layer="1127" from-port="0" to-layer="1128" to-port="0" />
		<edge from-layer="1128" from-port="1" to-layer="1129" to-port="1" />
		<edge from-layer="1129" from-port="2" to-layer="1130" to-port="0" />
		<edge from-layer="1130" from-port="1" to-layer="1139" to-port="0" />
		<edge from-layer="1131" from-port="0" to-layer="1132" to-port="0" />
		<edge from-layer="1132" from-port="1" to-layer="1139" to-port="1" />
		<edge from-layer="1133" from-port="0" to-layer="1134" to-port="0" />
		<edge from-layer="1134" from-port="1" to-layer="1139" to-port="2" />
		<edge from-layer="1135" from-port="0" to-layer="1136" to-port="0" />
		<edge from-layer="1136" from-port="1" to-layer="1139" to-port="3" />
		<edge from-layer="1137" from-port="0" to-layer="1138" to-port="0" />
		<edge from-layer="1138" from-port="1" to-layer="1139" to-port="4" />
		<edge from-layer="1139" from-port="5" to-layer="1140" to-port="1" />
		<edge from-layer="1140" from-port="2" to-layer="1149" to-port="0" />
		<edge from-layer="1141" from-port="0" to-layer="1142" to-port="0" />
		<edge from-layer="1142" from-port="1" to-layer="1149" to-port="1" />
		<edge from-layer="1143" from-port="0" to-layer="1144" to-port="0" />
		<edge from-layer="1144" from-port="1" to-layer="1149" to-port="2" />
		<edge from-layer="1145" from-port="0" to-layer="1146" to-port="0" />
		<edge from-layer="1146" from-port="1" to-layer="1149" to-port="3" />
		<edge from-layer="1147" from-port="0" to-layer="1148" to-port="0" />
		<edge from-layer="1148" from-port="1" to-layer="1149" to-port="4" />
		<edge from-layer="1149" from-port="5" to-layer="1155" to-port="0" />
		<edge from-layer="1150" from-port="0" to-layer="1151" to-port="0" />
		<edge from-layer="1151" from-port="1" to-layer="1154" to-port="0" />
		<edge from-layer="1152" from-port="0" to-layer="1153" to-port="0" />
		<edge from-layer="1153" from-port="1" to-layer="1154" to-port="1" />
		<edge from-layer="1154" from-port="2" to-layer="1155" to-port="1" />
		<edge from-layer="1155" from-port="2" to-layer="1158" to-port="0" />
		<edge from-layer="1156" from-port="0" to-layer="1157" to-port="0" />
		<edge from-layer="1157" from-port="1" to-layer="1158" to-port="1" />
		<edge from-layer="1158" from-port="2" to-layer="1167" to-port="0" />
		<edge from-layer="1159" from-port="0" to-layer="1160" to-port="0" />
		<edge from-layer="1160" from-port="1" to-layer="1167" to-port="1" />
		<edge from-layer="1161" from-port="0" to-layer="1162" to-port="0" />
		<edge from-layer="1162" from-port="1" to-layer="1167" to-port="2" />
		<edge from-layer="1163" from-port="0" to-layer="1164" to-port="0" />
		<edge from-layer="1164" from-port="1" to-layer="1167" to-port="3" />
		<edge from-layer="1165" from-port="0" to-layer="1166" to-port="0" />
		<edge from-layer="1166" from-port="1" to-layer="1167" to-port="4" />
		<edge from-layer="1167" from-port="5" to-layer="1173" to-port="0" />
		<edge from-layer="1167" from-port="5" to-layer="1259" to-port="1" />
		<edge from-layer="1168" from-port="0" to-layer="1169" to-port="0" />
		<edge from-layer="1169" from-port="1" to-layer="1172" to-port="0" />
		<edge from-layer="1170" from-port="0" to-layer="1171" to-port="0" />
		<edge from-layer="1171" from-port="1" to-layer="1172" to-port="1" />
		<edge from-layer="1172" from-port="2" to-layer="1173" to-port="1" />
		<edge from-layer="1173" from-port="2" to-layer="1176" to-port="0" />
		<edge from-layer="1174" from-port="0" to-layer="1175" to-port="0" />
		<edge from-layer="1175" from-port="1" to-layer="1176" to-port="1" />
		<edge from-layer="1176" from-port="2" to-layer="1177" to-port="0" />
		<edge from-layer="1177" from-port="1" to-layer="1186" to-port="0" />
		<edge from-layer="1178" from-port="0" to-layer="1179" to-port="0" />
		<edge from-layer="1179" from-port="1" to-layer="1186" to-port="1" />
		<edge from-layer="1180" from-port="0" to-layer="1181" to-port="0" />
		<edge from-layer="1181" from-port="1" to-layer="1186" to-port="2" />
		<edge from-layer="1182" from-port="0" to-layer="1183" to-port="0" />
		<edge from-layer="1183" from-port="1" to-layer="1186" to-port="3" />
		<edge from-layer="1184" from-port="0" to-layer="1185" to-port="0" />
		<edge from-layer="1185" from-port="1" to-layer="1186" to-port="4" />
		<edge from-layer="1186" from-port="5" to-layer="1192" to-port="0" />
		<edge from-layer="1187" from-port="0" to-layer="1188" to-port="0" />
		<edge from-layer="1188" from-port="1" to-layer="1191" to-port="0" />
		<edge from-layer="1189" from-port="0" to-layer="1190" to-port="0" />
		<edge from-layer="1190" from-port="1" to-layer="1191" to-port="1" />
		<edge from-layer="1191" from-port="2" to-layer="1192" to-port="1" />
		<edge from-layer="1192" from-port="2" to-layer="1195" to-port="0" />
		<edge from-layer="1193" from-port="0" to-layer="1194" to-port="0" />
		<edge from-layer="1194" from-port="1" to-layer="1195" to-port="1" />
		<edge from-layer="1195" from-port="2" to-layer="1196" to-port="0" />
		<edge from-layer="1196" from-port="1" to-layer="1205" to-port="0" />
		<edge from-layer="1197" from-port="0" to-layer="1198" to-port="0" />
		<edge from-layer="1198" from-port="1" to-layer="1205" to-port="1" />
		<edge from-layer="1199" from-port="0" to-layer="1200" to-port="0" />
		<edge from-layer="1200" from-port="1" to-layer="1205" to-port="2" />
		<edge from-layer="1201" from-port="0" to-layer="1202" to-port="0" />
		<edge from-layer="1202" from-port="1" to-layer="1205" to-port="3" />
		<edge from-layer="1203" from-port="0" to-layer="1204" to-port="0" />
		<edge from-layer="1204" from-port="1" to-layer="1205" to-port="4" />
		<edge from-layer="1205" from-port="5" to-layer="1207" to-port="0" />
		<edge from-layer="1205" from-port="5" to-layer="1231" to-port="0" />
		<edge from-layer="1206" from-port="0" to-layer="1207" to-port="1" />
		<edge from-layer="1207" from-port="2" to-layer="1210" to-port="0" />
		<edge from-layer="1208" from-port="0" to-layer="1209" to-port="0" />
		<edge from-layer="1209" from-port="1" to-layer="1210" to-port="1" />
		<edge from-layer="1210" from-port="2" to-layer="1213" to-port="0" />
		<edge from-layer="1211" from-port="0" to-layer="1212" to-port="0" />
		<edge from-layer="1212" from-port="1" to-layer="1213" to-port="1" />
		<edge from-layer="1213" from-port="2" to-layer="1214" to-port="0" />
		<edge from-layer="1214" from-port="1" to-layer="1217" to-port="0" />
		<edge from-layer="1215" from-port="0" to-layer="1216" to-port="0" />
		<edge from-layer="1216" from-port="1" to-layer="1217" to-port="1" />
		<edge from-layer="1217" from-port="2" to-layer="1220" to-port="0" />
		<edge from-layer="1218" from-port="0" to-layer="1219" to-port="0" />
		<edge from-layer="1219" from-port="1" to-layer="1220" to-port="1" />
		<edge from-layer="1220" from-port="2" to-layer="1221" to-port="0" />
		<edge from-layer="1221" from-port="1" to-layer="1230" to-port="0" />
		<edge from-layer="1222" from-port="0" to-layer="1223" to-port="0" />
		<edge from-layer="1223" from-port="1" to-layer="1230" to-port="1" />
		<edge from-layer="1224" from-port="0" to-layer="1225" to-port="0" />
		<edge from-layer="1225" from-port="1" to-layer="1230" to-port="2" />
		<edge from-layer="1226" from-port="0" to-layer="1227" to-port="0" />
		<edge from-layer="1227" from-port="1" to-layer="1230" to-port="3" />
		<edge from-layer="1228" from-port="0" to-layer="1229" to-port="0" />
		<edge from-layer="1229" from-port="1" to-layer="1230" to-port="4" />
		<edge from-layer="1230" from-port="5" to-layer="1231" to-port="1" />
		<edge from-layer="1231" from-port="2" to-layer="1240" to-port="0" />
		<edge from-layer="1232" from-port="0" to-layer="1233" to-port="0" />
		<edge from-layer="1233" from-port="1" to-layer="1240" to-port="1" />
		<edge from-layer="1234" from-port="0" to-layer="1235" to-port="0" />
		<edge from-layer="1235" from-port="1" to-layer="1240" to-port="2" />
		<edge from-layer="1236" from-port="0" to-layer="1237" to-port="0" />
		<edge from-layer="1237" from-port="1" to-layer="1240" to-port="3" />
		<edge from-layer="1238" from-port="0" to-layer="1239" to-port="0" />
		<edge from-layer="1239" from-port="1" to-layer="1240" to-port="4" />
		<edge from-layer="1240" from-port="5" to-layer="1246" to-port="0" />
		<edge from-layer="1241" from-port="0" to-layer="1242" to-port="0" />
		<edge from-layer="1242" from-port="1" to-layer="1245" to-port="0" />
		<edge from-layer="1243" from-port="0" to-layer="1244" to-port="0" />
		<edge from-layer="1244" from-port="1" to-layer="1245" to-port="1" />
		<edge from-layer="1245" from-port="2" to-layer="1246" to-port="1" />
		<edge from-layer="1246" from-port="2" to-layer="1249" to-port="0" />
		<edge from-layer="1247" from-port="0" to-layer="1248" to-port="0" />
		<edge from-layer="1248" from-port="1" to-layer="1249" to-port="1" />
		<edge from-layer="1249" from-port="2" to-layer="1258" to-port="0" />
		<edge from-layer="1250" from-port="0" to-layer="1251" to-port="0" />
		<edge from-layer="1251" from-port="1" to-layer="1258" to-port="1" />
		<edge from-layer="1252" from-port="0" to-layer="1253" to-port="0" />
		<edge from-layer="1253" from-port="1" to-layer="1258" to-port="2" />
		<edge from-layer="1254" from-port="0" to-layer="1255" to-port="0" />
		<edge from-layer="1255" from-port="1" to-layer="1258" to-port="3" />
		<edge from-layer="1256" from-port="0" to-layer="1257" to-port="0" />
		<edge from-layer="1257" from-port="1" to-layer="1258" to-port="4" />
		<edge from-layer="1258" from-port="5" to-layer="1259" to-port="0" />
		<edge from-layer="1259" from-port="2" to-layer="1268" to-port="0" />
		<edge from-layer="1260" from-port="0" to-layer="1261" to-port="0" />
		<edge from-layer="1261" from-port="1" to-layer="1268" to-port="1" />
		<edge from-layer="1262" from-port="0" to-layer="1263" to-port="0" />
		<edge from-layer="1263" from-port="1" to-layer="1268" to-port="2" />
		<edge from-layer="1264" from-port="0" to-layer="1265" to-port="0" />
		<edge from-layer="1265" from-port="1" to-layer="1268" to-port="3" />
		<edge from-layer="1266" from-port="0" to-layer="1267" to-port="0" />
		<edge from-layer="1267" from-port="1" to-layer="1268" to-port="4" />
		<edge from-layer="1268" from-port="5" to-layer="1274" to-port="0" />
		<edge from-layer="1268" from-port="5" to-layer="1360" to-port="1" />
		<edge from-layer="1269" from-port="0" to-layer="1270" to-port="0" />
		<edge from-layer="1270" from-port="1" to-layer="1273" to-port="0" />
		<edge from-layer="1271" from-port="0" to-layer="1272" to-port="0" />
		<edge from-layer="1272" from-port="1" to-layer="1273" to-port="1" />
		<edge from-layer="1273" from-port="2" to-layer="1274" to-port="1" />
		<edge from-layer="1274" from-port="2" to-layer="1277" to-port="0" />
		<edge from-layer="1275" from-port="0" to-layer="1276" to-port="0" />
		<edge from-layer="1276" from-port="1" to-layer="1277" to-port="1" />
		<edge from-layer="1277" from-port="2" to-layer="1278" to-port="0" />
		<edge from-layer="1278" from-port="1" to-layer="1287" to-port="0" />
		<edge from-layer="1279" from-port="0" to-layer="1280" to-port="0" />
		<edge from-layer="1280" from-port="1" to-layer="1287" to-port="1" />
		<edge from-layer="1281" from-port="0" to-layer="1282" to-port="0" />
		<edge from-layer="1282" from-port="1" to-layer="1287" to-port="2" />
		<edge from-layer="1283" from-port="0" to-layer="1284" to-port="0" />
		<edge from-layer="1284" from-port="1" to-layer="1287" to-port="3" />
		<edge from-layer="1285" from-port="0" to-layer="1286" to-port="0" />
		<edge from-layer="1286" from-port="1" to-layer="1287" to-port="4" />
		<edge from-layer="1287" from-port="5" to-layer="1293" to-port="0" />
		<edge from-layer="1288" from-port="0" to-layer="1289" to-port="0" />
		<edge from-layer="1289" from-port="1" to-layer="1292" to-port="0" />
		<edge from-layer="1290" from-port="0" to-layer="1291" to-port="0" />
		<edge from-layer="1291" from-port="1" to-layer="1292" to-port="1" />
		<edge from-layer="1292" from-port="2" to-layer="1293" to-port="1" />
		<edge from-layer="1293" from-port="2" to-layer="1296" to-port="0" />
		<edge from-layer="1294" from-port="0" to-layer="1295" to-port="0" />
		<edge from-layer="1295" from-port="1" to-layer="1296" to-port="1" />
		<edge from-layer="1296" from-port="2" to-layer="1297" to-port="0" />
		<edge from-layer="1297" from-port="1" to-layer="1306" to-port="0" />
		<edge from-layer="1298" from-port="0" to-layer="1299" to-port="0" />
		<edge from-layer="1299" from-port="1" to-layer="1306" to-port="1" />
		<edge from-layer="1300" from-port="0" to-layer="1301" to-port="0" />
		<edge from-layer="1301" from-port="1" to-layer="1306" to-port="2" />
		<edge from-layer="1302" from-port="0" to-layer="1303" to-port="0" />
		<edge from-layer="1303" from-port="1" to-layer="1306" to-port="3" />
		<edge from-layer="1304" from-port="0" to-layer="1305" to-port="0" />
		<edge from-layer="1305" from-port="1" to-layer="1306" to-port="4" />
		<edge from-layer="1306" from-port="5" to-layer="1332" to-port="0" />
		<edge from-layer="1306" from-port="5" to-layer="1308" to-port="0" />
		<edge from-layer="1307" from-port="0" to-layer="1308" to-port="1" />
		<edge from-layer="1308" from-port="2" to-layer="1311" to-port="0" />
		<edge from-layer="1309" from-port="0" to-layer="1310" to-port="0" />
		<edge from-layer="1310" from-port="1" to-layer="1311" to-port="1" />
		<edge from-layer="1311" from-port="2" to-layer="1314" to-port="0" />
		<edge from-layer="1312" from-port="0" to-layer="1313" to-port="0" />
		<edge from-layer="1313" from-port="1" to-layer="1314" to-port="1" />
		<edge from-layer="1314" from-port="2" to-layer="1315" to-port="0" />
		<edge from-layer="1315" from-port="1" to-layer="1318" to-port="0" />
		<edge from-layer="1316" from-port="0" to-layer="1317" to-port="0" />
		<edge from-layer="1317" from-port="1" to-layer="1318" to-port="1" />
		<edge from-layer="1318" from-port="2" to-layer="1321" to-port="0" />
		<edge from-layer="1319" from-port="0" to-layer="1320" to-port="0" />
		<edge from-layer="1320" from-port="1" to-layer="1321" to-port="1" />
		<edge from-layer="1321" from-port="2" to-layer="1322" to-port="0" />
		<edge from-layer="1322" from-port="1" to-layer="1331" to-port="0" />
		<edge from-layer="1323" from-port="0" to-layer="1324" to-port="0" />
		<edge from-layer="1324" from-port="1" to-layer="1331" to-port="1" />
		<edge from-layer="1325" from-port="0" to-layer="1326" to-port="0" />
		<edge from-layer="1326" from-port="1" to-layer="1331" to-port="2" />
		<edge from-layer="1327" from-port="0" to-layer="1328" to-port="0" />
		<edge from-layer="1328" from-port="1" to-layer="1331" to-port="3" />
		<edge from-layer="1329" from-port="0" to-layer="1330" to-port="0" />
		<edge from-layer="1330" from-port="1" to-layer="1331" to-port="4" />
		<edge from-layer="1331" from-port="5" to-layer="1332" to-port="1" />
		<edge from-layer="1332" from-port="2" to-layer="1341" to-port="0" />
		<edge from-layer="1333" from-port="0" to-layer="1334" to-port="0" />
		<edge from-layer="1334" from-port="1" to-layer="1341" to-port="1" />
		<edge from-layer="1335" from-port="0" to-layer="1336" to-port="0" />
		<edge from-layer="1336" from-port="1" to-layer="1341" to-port="2" />
		<edge from-layer="1337" from-port="0" to-layer="1338" to-port="0" />
		<edge from-layer="1338" from-port="1" to-layer="1341" to-port="3" />
		<edge from-layer="1339" from-port="0" to-layer="1340" to-port="0" />
		<edge from-layer="1340" from-port="1" to-layer="1341" to-port="4" />
		<edge from-layer="1341" from-port="5" to-layer="1347" to-port="0" />
		<edge from-layer="1342" from-port="0" to-layer="1343" to-port="0" />
		<edge from-layer="1343" from-port="1" to-layer="1346" to-port="0" />
		<edge from-layer="1344" from-port="0" to-layer="1345" to-port="0" />
		<edge from-layer="1345" from-port="1" to-layer="1346" to-port="1" />
		<edge from-layer="1346" from-port="2" to-layer="1347" to-port="1" />
		<edge from-layer="1347" from-port="2" to-layer="1350" to-port="0" />
		<edge from-layer="1348" from-port="0" to-layer="1349" to-port="0" />
		<edge from-layer="1349" from-port="1" to-layer="1350" to-port="1" />
		<edge from-layer="1350" from-port="2" to-layer="1359" to-port="0" />
		<edge from-layer="1351" from-port="0" to-layer="1352" to-port="0" />
		<edge from-layer="1352" from-port="1" to-layer="1359" to-port="1" />
		<edge from-layer="1353" from-port="0" to-layer="1354" to-port="0" />
		<edge from-layer="1354" from-port="1" to-layer="1359" to-port="2" />
		<edge from-layer="1355" from-port="0" to-layer="1356" to-port="0" />
		<edge from-layer="1356" from-port="1" to-layer="1359" to-port="3" />
		<edge from-layer="1357" from-port="0" to-layer="1358" to-port="0" />
		<edge from-layer="1358" from-port="1" to-layer="1359" to-port="4" />
		<edge from-layer="1359" from-port="5" to-layer="1360" to-port="0" />
		<edge from-layer="1360" from-port="2" to-layer="1369" to-port="0" />
		<edge from-layer="1361" from-port="0" to-layer="1362" to-port="0" />
		<edge from-layer="1362" from-port="1" to-layer="1369" to-port="1" />
		<edge from-layer="1363" from-port="0" to-layer="1364" to-port="0" />
		<edge from-layer="1364" from-port="1" to-layer="1369" to-port="2" />
		<edge from-layer="1365" from-port="0" to-layer="1366" to-port="0" />
		<edge from-layer="1366" from-port="1" to-layer="1369" to-port="3" />
		<edge from-layer="1367" from-port="0" to-layer="1368" to-port="0" />
		<edge from-layer="1368" from-port="1" to-layer="1369" to-port="4" />
		<edge from-layer="1369" from-port="5" to-layer="1461" to-port="1" />
		<edge from-layer="1369" from-port="5" to-layer="1375" to-port="0" />
		<edge from-layer="1370" from-port="0" to-layer="1371" to-port="0" />
		<edge from-layer="1371" from-port="1" to-layer="1374" to-port="0" />
		<edge from-layer="1372" from-port="0" to-layer="1373" to-port="0" />
		<edge from-layer="1373" from-port="1" to-layer="1374" to-port="1" />
		<edge from-layer="1374" from-port="2" to-layer="1375" to-port="1" />
		<edge from-layer="1375" from-port="2" to-layer="1378" to-port="0" />
		<edge from-layer="1376" from-port="0" to-layer="1377" to-port="0" />
		<edge from-layer="1377" from-port="1" to-layer="1378" to-port="1" />
		<edge from-layer="1378" from-port="2" to-layer="1379" to-port="0" />
		<edge from-layer="1379" from-port="1" to-layer="1388" to-port="0" />
		<edge from-layer="1380" from-port="0" to-layer="1381" to-port="0" />
		<edge from-layer="1381" from-port="1" to-layer="1388" to-port="1" />
		<edge from-layer="1382" from-port="0" to-layer="1383" to-port="0" />
		<edge from-layer="1383" from-port="1" to-layer="1388" to-port="2" />
		<edge from-layer="1384" from-port="0" to-layer="1385" to-port="0" />
		<edge from-layer="1385" from-port="1" to-layer="1388" to-port="3" />
		<edge from-layer="1386" from-port="0" to-layer="1387" to-port="0" />
		<edge from-layer="1387" from-port="1" to-layer="1388" to-port="4" />
		<edge from-layer="1388" from-port="5" to-layer="1394" to-port="0" />
		<edge from-layer="1389" from-port="0" to-layer="1390" to-port="0" />
		<edge from-layer="1390" from-port="1" to-layer="1393" to-port="0" />
		<edge from-layer="1391" from-port="0" to-layer="1392" to-port="0" />
		<edge from-layer="1392" from-port="1" to-layer="1393" to-port="1" />
		<edge from-layer="1393" from-port="2" to-layer="1394" to-port="1" />
		<edge from-layer="1394" from-port="2" to-layer="1397" to-port="0" />
		<edge from-layer="1395" from-port="0" to-layer="1396" to-port="0" />
		<edge from-layer="1396" from-port="1" to-layer="1397" to-port="1" />
		<edge from-layer="1397" from-port="2" to-layer="1398" to-port="0" />
		<edge from-layer="1398" from-port="1" to-layer="1407" to-port="0" />
		<edge from-layer="1399" from-port="0" to-layer="1400" to-port="0" />
		<edge from-layer="1400" from-port="1" to-layer="1407" to-port="1" />
		<edge from-layer="1401" from-port="0" to-layer="1402" to-port="0" />
		<edge from-layer="1402" from-port="1" to-layer="1407" to-port="2" />
		<edge from-layer="1403" from-port="0" to-layer="1404" to-port="0" />
		<edge from-layer="1404" from-port="1" to-layer="1407" to-port="3" />
		<edge from-layer="1405" from-port="0" to-layer="1406" to-port="0" />
		<edge from-layer="1406" from-port="1" to-layer="1407" to-port="4" />
		<edge from-layer="1407" from-port="5" to-layer="1433" to-port="0" />
		<edge from-layer="1407" from-port="5" to-layer="1409" to-port="0" />
		<edge from-layer="1408" from-port="0" to-layer="1409" to-port="1" />
		<edge from-layer="1409" from-port="2" to-layer="1412" to-port="0" />
		<edge from-layer="1410" from-port="0" to-layer="1411" to-port="0" />
		<edge from-layer="1411" from-port="1" to-layer="1412" to-port="1" />
		<edge from-layer="1412" from-port="2" to-layer="1415" to-port="0" />
		<edge from-layer="1413" from-port="0" to-layer="1414" to-port="0" />
		<edge from-layer="1414" from-port="1" to-layer="1415" to-port="1" />
		<edge from-layer="1415" from-port="2" to-layer="1416" to-port="0" />
		<edge from-layer="1416" from-port="1" to-layer="1419" to-port="0" />
		<edge from-layer="1417" from-port="0" to-layer="1418" to-port="0" />
		<edge from-layer="1418" from-port="1" to-layer="1419" to-port="1" />
		<edge from-layer="1419" from-port="2" to-layer="1422" to-port="0" />
		<edge from-layer="1420" from-port="0" to-layer="1421" to-port="0" />
		<edge from-layer="1421" from-port="1" to-layer="1422" to-port="1" />
		<edge from-layer="1422" from-port="2" to-layer="1423" to-port="0" />
		<edge from-layer="1423" from-port="1" to-layer="1432" to-port="0" />
		<edge from-layer="1424" from-port="0" to-layer="1425" to-port="0" />
		<edge from-layer="1425" from-port="1" to-layer="1432" to-port="1" />
		<edge from-layer="1426" from-port="0" to-layer="1427" to-port="0" />
		<edge from-layer="1427" from-port="1" to-layer="1432" to-port="2" />
		<edge from-layer="1428" from-port="0" to-layer="1429" to-port="0" />
		<edge from-layer="1429" from-port="1" to-layer="1432" to-port="3" />
		<edge from-layer="1430" from-port="0" to-layer="1431" to-port="0" />
		<edge from-layer="1431" from-port="1" to-layer="1432" to-port="4" />
		<edge from-layer="1432" from-port="5" to-layer="1433" to-port="1" />
		<edge from-layer="1433" from-port="2" to-layer="1442" to-port="0" />
		<edge from-layer="1434" from-port="0" to-layer="1435" to-port="0" />
		<edge from-layer="1435" from-port="1" to-layer="1442" to-port="1" />
		<edge from-layer="1436" from-port="0" to-layer="1437" to-port="0" />
		<edge from-layer="1437" from-port="1" to-layer="1442" to-port="2" />
		<edge from-layer="1438" from-port="0" to-layer="1439" to-port="0" />
		<edge from-layer="1439" from-port="1" to-layer="1442" to-port="3" />
		<edge from-layer="1440" from-port="0" to-layer="1441" to-port="0" />
		<edge from-layer="1441" from-port="1" to-layer="1442" to-port="4" />
		<edge from-layer="1442" from-port="5" to-layer="1448" to-port="0" />
		<edge from-layer="1443" from-port="0" to-layer="1444" to-port="0" />
		<edge from-layer="1444" from-port="1" to-layer="1447" to-port="0" />
		<edge from-layer="1445" from-port="0" to-layer="1446" to-port="0" />
		<edge from-layer="1446" from-port="1" to-layer="1447" to-port="1" />
		<edge from-layer="1447" from-port="2" to-layer="1448" to-port="1" />
		<edge from-layer="1448" from-port="2" to-layer="1451" to-port="0" />
		<edge from-layer="1449" from-port="0" to-layer="1450" to-port="0" />
		<edge from-layer="1450" from-port="1" to-layer="1451" to-port="1" />
		<edge from-layer="1451" from-port="2" to-layer="1460" to-port="0" />
		<edge from-layer="1452" from-port="0" to-layer="1453" to-port="0" />
		<edge from-layer="1453" from-port="1" to-layer="1460" to-port="1" />
		<edge from-layer="1454" from-port="0" to-layer="1455" to-port="0" />
		<edge from-layer="1455" from-port="1" to-layer="1460" to-port="2" />
		<edge from-layer="1456" from-port="0" to-layer="1457" to-port="0" />
		<edge from-layer="1457" from-port="1" to-layer="1460" to-port="3" />
		<edge from-layer="1458" from-port="0" to-layer="1459" to-port="0" />
		<edge from-layer="1459" from-port="1" to-layer="1460" to-port="4" />
		<edge from-layer="1460" from-port="5" to-layer="1461" to-port="0" />
		<edge from-layer="1461" from-port="2" to-layer="1470" to-port="0" />
		<edge from-layer="1462" from-port="0" to-layer="1463" to-port="0" />
		<edge from-layer="1463" from-port="1" to-layer="1470" to-port="1" />
		<edge from-layer="1464" from-port="0" to-layer="1465" to-port="0" />
		<edge from-layer="1465" from-port="1" to-layer="1470" to-port="2" />
		<edge from-layer="1466" from-port="0" to-layer="1467" to-port="0" />
		<edge from-layer="1467" from-port="1" to-layer="1470" to-port="3" />
		<edge from-layer="1468" from-port="0" to-layer="1469" to-port="0" />
		<edge from-layer="1469" from-port="1" to-layer="1470" to-port="4" />
		<edge from-layer="1470" from-port="5" to-layer="1476" to-port="0" />
		<edge from-layer="1471" from-port="0" to-layer="1472" to-port="0" />
		<edge from-layer="1472" from-port="1" to-layer="1475" to-port="0" />
		<edge from-layer="1473" from-port="0" to-layer="1474" to-port="0" />
		<edge from-layer="1474" from-port="1" to-layer="1475" to-port="1" />
		<edge from-layer="1475" from-port="2" to-layer="1476" to-port="1" />
		<edge from-layer="1476" from-port="2" to-layer="1479" to-port="0" />
		<edge from-layer="1477" from-port="0" to-layer="1478" to-port="0" />
		<edge from-layer="1478" from-port="1" to-layer="1479" to-port="1" />
		<edge from-layer="1479" from-port="2" to-layer="1480" to-port="0" />
		<edge from-layer="1480" from-port="1" to-layer="1489" to-port="0" />
		<edge from-layer="1481" from-port="0" to-layer="1482" to-port="0" />
		<edge from-layer="1482" from-port="1" to-layer="1489" to-port="1" />
		<edge from-layer="1483" from-port="0" to-layer="1484" to-port="0" />
		<edge from-layer="1484" from-port="1" to-layer="1489" to-port="2" />
		<edge from-layer="1485" from-port="0" to-layer="1486" to-port="0" />
		<edge from-layer="1486" from-port="1" to-layer="1489" to-port="3" />
		<edge from-layer="1487" from-port="0" to-layer="1488" to-port="0" />
		<edge from-layer="1488" from-port="1" to-layer="1489" to-port="4" />
		<edge from-layer="1489" from-port="5" to-layer="1495" to-port="0" />
		<edge from-layer="1490" from-port="0" to-layer="1491" to-port="0" />
		<edge from-layer="1491" from-port="1" to-layer="1494" to-port="0" />
		<edge from-layer="1492" from-port="0" to-layer="1493" to-port="0" />
		<edge from-layer="1493" from-port="1" to-layer="1494" to-port="1" />
		<edge from-layer="1494" from-port="2" to-layer="1495" to-port="1" />
		<edge from-layer="1495" from-port="2" to-layer="1498" to-port="0" />
		<edge from-layer="1496" from-port="0" to-layer="1497" to-port="0" />
		<edge from-layer="1497" from-port="1" to-layer="1498" to-port="1" />
		<edge from-layer="1498" from-port="2" to-layer="1499" to-port="0" />
		<edge from-layer="1499" from-port="1" to-layer="1508" to-port="0" />
		<edge from-layer="1500" from-port="0" to-layer="1501" to-port="0" />
		<edge from-layer="1501" from-port="1" to-layer="1508" to-port="1" />
		<edge from-layer="1502" from-port="0" to-layer="1503" to-port="0" />
		<edge from-layer="1503" from-port="1" to-layer="1508" to-port="2" />
		<edge from-layer="1504" from-port="0" to-layer="1505" to-port="0" />
		<edge from-layer="1505" from-port="1" to-layer="1508" to-port="3" />
		<edge from-layer="1506" from-port="0" to-layer="1507" to-port="0" />
		<edge from-layer="1507" from-port="1" to-layer="1508" to-port="4" />
		<edge from-layer="1508" from-port="5" to-layer="1510" to-port="0" />
		<edge from-layer="1508" from-port="5" to-layer="1534" to-port="0" />
		<edge from-layer="1509" from-port="0" to-layer="1510" to-port="1" />
		<edge from-layer="1510" from-port="2" to-layer="1513" to-port="0" />
		<edge from-layer="1511" from-port="0" to-layer="1512" to-port="0" />
		<edge from-layer="1512" from-port="1" to-layer="1513" to-port="1" />
		<edge from-layer="1513" from-port="2" to-layer="1516" to-port="0" />
		<edge from-layer="1514" from-port="0" to-layer="1515" to-port="0" />
		<edge from-layer="1515" from-port="1" to-layer="1516" to-port="1" />
		<edge from-layer="1516" from-port="2" to-layer="1517" to-port="0" />
		<edge from-layer="1517" from-port="1" to-layer="1520" to-port="0" />
		<edge from-layer="1518" from-port="0" to-layer="1519" to-port="0" />
		<edge from-layer="1519" from-port="1" to-layer="1520" to-port="1" />
		<edge from-layer="1520" from-port="2" to-layer="1523" to-port="0" />
		<edge from-layer="1521" from-port="0" to-layer="1522" to-port="0" />
		<edge from-layer="1522" from-port="1" to-layer="1523" to-port="1" />
		<edge from-layer="1523" from-port="2" to-layer="1524" to-port="0" />
		<edge from-layer="1524" from-port="1" to-layer="1533" to-port="0" />
		<edge from-layer="1525" from-port="0" to-layer="1526" to-port="0" />
		<edge from-layer="1526" from-port="1" to-layer="1533" to-port="1" />
		<edge from-layer="1527" from-port="0" to-layer="1528" to-port="0" />
		<edge from-layer="1528" from-port="1" to-layer="1533" to-port="2" />
		<edge from-layer="1529" from-port="0" to-layer="1530" to-port="0" />
		<edge from-layer="1530" from-port="1" to-layer="1533" to-port="3" />
		<edge from-layer="1531" from-port="0" to-layer="1532" to-port="0" />
		<edge from-layer="1532" from-port="1" to-layer="1533" to-port="4" />
		<edge from-layer="1533" from-port="5" to-layer="1534" to-port="1" />
		<edge from-layer="1534" from-port="2" to-layer="1543" to-port="0" />
		<edge from-layer="1535" from-port="0" to-layer="1536" to-port="0" />
		<edge from-layer="1536" from-port="1" to-layer="1543" to-port="1" />
		<edge from-layer="1537" from-port="0" to-layer="1538" to-port="0" />
		<edge from-layer="1538" from-port="1" to-layer="1543" to-port="2" />
		<edge from-layer="1539" from-port="0" to-layer="1540" to-port="0" />
		<edge from-layer="1540" from-port="1" to-layer="1543" to-port="3" />
		<edge from-layer="1541" from-port="0" to-layer="1542" to-port="0" />
		<edge from-layer="1542" from-port="1" to-layer="1543" to-port="4" />
		<edge from-layer="1543" from-port="5" to-layer="1549" to-port="0" />
		<edge from-layer="1544" from-port="0" to-layer="1545" to-port="0" />
		<edge from-layer="1545" from-port="1" to-layer="1548" to-port="0" />
		<edge from-layer="1546" from-port="0" to-layer="1547" to-port="0" />
		<edge from-layer="1547" from-port="1" to-layer="1548" to-port="1" />
		<edge from-layer="1548" from-port="2" to-layer="1549" to-port="1" />
		<edge from-layer="1549" from-port="2" to-layer="1552" to-port="0" />
		<edge from-layer="1550" from-port="0" to-layer="1551" to-port="0" />
		<edge from-layer="1551" from-port="1" to-layer="1552" to-port="1" />
		<edge from-layer="1552" from-port="2" to-layer="1561" to-port="0" />
		<edge from-layer="1553" from-port="0" to-layer="1554" to-port="0" />
		<edge from-layer="1554" from-port="1" to-layer="1561" to-port="1" />
		<edge from-layer="1555" from-port="0" to-layer="1556" to-port="0" />
		<edge from-layer="1556" from-port="1" to-layer="1561" to-port="2" />
		<edge from-layer="1557" from-port="0" to-layer="1558" to-port="0" />
		<edge from-layer="1558" from-port="1" to-layer="1561" to-port="3" />
		<edge from-layer="1559" from-port="0" to-layer="1560" to-port="0" />
		<edge from-layer="1560" from-port="1" to-layer="1561" to-port="4" />
		<edge from-layer="1561" from-port="5" to-layer="1567" to-port="0" />
		<edge from-layer="1562" from-port="0" to-layer="1563" to-port="0" />
		<edge from-layer="1563" from-port="1" to-layer="1566" to-port="0" />
		<edge from-layer="1564" from-port="0" to-layer="1565" to-port="0" />
		<edge from-layer="1565" from-port="1" to-layer="1566" to-port="1" />
		<edge from-layer="1566" from-port="2" to-layer="1567" to-port="1" />
		<edge from-layer="1567" from-port="2" to-layer="1570" to-port="0" />
		<edge from-layer="1568" from-port="0" to-layer="1569" to-port="0" />
		<edge from-layer="1569" from-port="1" to-layer="1570" to-port="1" />
		<edge from-layer="1570" from-port="2" to-layer="1571" to-port="0" />
		<edge from-layer="1571" from-port="1" to-layer="1580" to-port="0" />
		<edge from-layer="1572" from-port="0" to-layer="1573" to-port="0" />
		<edge from-layer="1573" from-port="1" to-layer="1580" to-port="1" />
		<edge from-layer="1574" from-port="0" to-layer="1575" to-port="0" />
		<edge from-layer="1575" from-port="1" to-layer="1580" to-port="2" />
		<edge from-layer="1576" from-port="0" to-layer="1577" to-port="0" />
		<edge from-layer="1577" from-port="1" to-layer="1580" to-port="3" />
		<edge from-layer="1578" from-port="0" to-layer="1579" to-port="0" />
		<edge from-layer="1579" from-port="1" to-layer="1580" to-port="4" />
		<edge from-layer="1580" from-port="5" to-layer="1582" to-port="0" />
		<edge from-layer="1581" from-port="0" to-layer="1582" to-port="1" />
		<edge from-layer="1582" from-port="2" to-layer="1591" to-port="0" />
		<edge from-layer="1583" from-port="0" to-layer="1584" to-port="0" />
		<edge from-layer="1584" from-port="1" to-layer="1591" to-port="1" />
		<edge from-layer="1585" from-port="0" to-layer="1586" to-port="0" />
		<edge from-layer="1586" from-port="1" to-layer="1591" to-port="2" />
		<edge from-layer="1587" from-port="0" to-layer="1588" to-port="0" />
		<edge from-layer="1588" from-port="1" to-layer="1591" to-port="3" />
		<edge from-layer="1589" from-port="0" to-layer="1590" to-port="0" />
		<edge from-layer="1590" from-port="1" to-layer="1591" to-port="4" />
		<edge from-layer="1591" from-port="5" to-layer="1593" to-port="0" />
		<edge from-layer="1592" from-port="0" to-layer="1593" to-port="1" />
		<edge from-layer="1593" from-port="2" to-layer="1595" to-port="0" />
		<edge from-layer="1594" from-port="0" to-layer="1595" to-port="1" />
		<edge from-layer="1595" from-port="2" to-layer="1597" to-port="0" />
		<edge from-layer="1595" from-port="2" to-layer="1608" to-port="0" />
		<edge from-layer="1596" from-port="0" to-layer="1597" to-port="1" />
		<edge from-layer="1597" from-port="2" to-layer="1598" to-port="0" />
		<edge from-layer="1598" from-port="1" to-layer="1607" to-port="0" />
		<edge from-layer="1599" from-port="0" to-layer="1600" to-port="0" />
		<edge from-layer="1600" from-port="1" to-layer="1607" to-port="1" />
		<edge from-layer="1601" from-port="0" to-layer="1602" to-port="0" />
		<edge from-layer="1602" from-port="1" to-layer="1607" to-port="2" />
		<edge from-layer="1603" from-port="0" to-layer="1604" to-port="0" />
		<edge from-layer="1604" from-port="1" to-layer="1607" to-port="3" />
		<edge from-layer="1605" from-port="0" to-layer="1606" to-port="0" />
		<edge from-layer="1606" from-port="1" to-layer="1607" to-port="4" />
		<edge from-layer="1607" from-port="5" to-layer="1608" to-port="1" />
		<edge from-layer="1608" from-port="2" to-layer="1617" to-port="0" />
		<edge from-layer="1609" from-port="0" to-layer="1610" to-port="0" />
		<edge from-layer="1610" from-port="1" to-layer="1617" to-port="1" />
		<edge from-layer="1611" from-port="0" to-layer="1612" to-port="0" />
		<edge from-layer="1612" from-port="1" to-layer="1617" to-port="2" />
		<edge from-layer="1613" from-port="0" to-layer="1614" to-port="0" />
		<edge from-layer="1614" from-port="1" to-layer="1617" to-port="3" />
		<edge from-layer="1615" from-port="0" to-layer="1616" to-port="0" />
		<edge from-layer="1616" from-port="1" to-layer="1617" to-port="4" />
		<edge from-layer="1617" from-port="5" to-layer="1623" to-port="0" />
		<edge from-layer="1618" from-port="0" to-layer="1619" to-port="0" />
		<edge from-layer="1619" from-port="1" to-layer="1622" to-port="0" />
		<edge from-layer="1620" from-port="0" to-layer="1621" to-port="0" />
		<edge from-layer="1621" from-port="1" to-layer="1622" to-port="1" />
		<edge from-layer="1622" from-port="2" to-layer="1623" to-port="1" />
		<edge from-layer="1623" from-port="2" to-layer="1624" to-port="0" />
		<edge from-layer="1624" from-port="1" to-layer="1627" to-port="0" />
		<edge from-layer="1625" from-port="0" to-layer="1626" to-port="0" />
		<edge from-layer="1626" from-port="1" to-layer="1627" to-port="1" />
		<edge from-layer="1627" from-port="2" to-layer="1628" to-port="0" />
	</edges>
	<rt_info>
		<MO_version value="2023.3.0-13775-ceeafaf64f3-releases/2023/3" />
		<Runtime_version value="2023.3.0-13775-ceeafaf64f3-releases/2023/3" />
		<conversion_parameters>
			<input value="data" />
			<input_model value="DIR/model_ready.onnx" />
			<input_shape value="[1, 3, 224, 224]" />
			<is_python_api_used value="False" />
			<mean_values value="[123.675, 116.28, 103.53]" />
			<model_name value="model" />
			<output value="logits" />
			<output_dir value="DIR" />
			<scale_values value="[58.395, 57.12, 57.375]" />
		</conversion_parameters>
		<legacy_frontend value="False" />
		<model_info>
			<confidence_threshold value="0.5" />
			<hierarchical value="False" />
			<hierarchical_config value="{&quot;cls_heads_info&quot;: {&quot;num_multiclass_heads&quot;: 0, &quot;num_multilabel_classes&quot;: 3, &quot;head_idx_to_logits_range&quot;: {}, &quot;num_single_label_classes&quot;: 0, &quot;class_to_group_idx&quot;: {&quot;Beer&quot;: [0, 0], &quot;Duck&quot;: [0, 1], &quot;Wall&quot;: [0, 2]}, &quot;all_groups&quot;: [[&quot;Beer&quot;], [&quot;Duck&quot;], [&quot;Wall&quot;]], &quot;label_to_idx&quot;: {&quot;Beer&quot;: 0, &quot;Duck&quot;: 1, &quot;Wall&quot;: 2}, &quot;empty_multiclass_head_indices&quot;: []}, &quot;label_tree_edges&quot;: []}" />
			<label_ids value="6661a0f92022cd03936d3a7f 6661a0f92022cd03936d3a80 6661a0f92022cd03936d3a81" />
			<labels value="Wall Beer Duck" />
			<model_type value="Classification" />
			<multilabel value="True" />
			<output_raw_scores value="True" />
			<task_type value="classification" />
		</model_info>
		<nncf>
			<quantization>
				<advanced_parameters value="{}" />
				<fast_bias_correction value="True" />
				<ignored_scope value="None" />
				<model_type value="None" />
				<preset value="QuantizationPreset.PERFORMANCE" />
				<subset_size value="8" />
				<target_device value="ANY" />
			</quantization>
		</nncf>
		<otx_config value="{&quot;type_of_model&quot;: &quot;Classification&quot;, &quot;converter_type&quot;: &quot;CLASSIFICATION&quot;, &quot;model_parameters&quot;: {&quot;multilabel&quot;: true, &quot;hierarchical&quot;: false, &quot;multihead_class_info&quot;: {}, &quot;confidence_threshold&quot;: 0.5, &quot;labels&quot;: {&quot;label_tree&quot;: {&quot;type&quot;: &quot;tree&quot;, &quot;directed&quot;: true, &quot;nodes&quot;: [], &quot;edges&quot;: []}, &quot;label_groups&quot;: [{&quot;_id&quot;: &quot;6661a0f92022cd03936d3a84&quot;, &quot;name&quot;: &quot;Classification labels___Wall&quot;, &quot;label_ids&quot;: [&quot;6661a0f92022cd03936d3a7f&quot;], &quot;relation_type&quot;: &quot;EXCLUSIVE&quot;}, {&quot;_id&quot;: &quot;6661a0f92022cd03936d3a85&quot;, &quot;name&quot;: &quot;Classification labels___Beer&quot;, &quot;label_ids&quot;: [&quot;6661a0f92022cd03936d3a80&quot;], &quot;relation_type&quot;: &quot;EXCLUSIVE&quot;}, {&quot;_id&quot;: &quot;6661a0f92022cd03936d3a86&quot;, &quot;name&quot;: &quot;Classification labels___Duck&quot;, &quot;label_ids&quot;: [&quot;6661a0f92022cd03936d3a81&quot;], &quot;relation_type&quot;: &quot;EXCLUSIVE&quot;}, {&quot;_id&quot;: &quot;6661a0f92022cd03936d3a88&quot;, &quot;name&quot;: &quot;No class&quot;, &quot;label_ids&quot;: [&quot;6661a0f92022cd03936d3a87&quot;], &quot;relation_type&quot;: &quot;EMPTY_LABEL&quot;}], &quot;all_labels&quot;: {&quot;6661a0f92022cd03936d3a7f&quot;: {&quot;_id&quot;: &quot;6661a0f92022cd03936d3a7f&quot;, &quot;name&quot;: &quot;Wall&quot;, &quot;color&quot;: {&quot;red&quot;: 255, &quot;green&quot;: 255, &quot;blue&quot;: 255, &quot;alpha&quot;: 255}, &quot;hotkey&quot;: &quot;&quot;, &quot;domain&quot;: &quot;CLASSIFICATION&quot;, &quot;creation_date&quot;: &quot;2024-06-06T11:43:53.732000&quot;, &quot;is_empty&quot;: false, &quot;is_anomalous&quot;: false}, &quot;6661a0f92022cd03936d3a80&quot;: {&quot;_id&quot;: &quot;6661a0f92022cd03936d3a80&quot;, &quot;name&quot;: &quot;Beer&quot;, &quot;color&quot;: {&quot;red&quot;: 255, &quot;green&quot;: 201, &quot;blue&quot;: 0, &quot;alpha&quot;: 255}, &quot;hotkey&quot;: &quot;&quot;, &quot;domain&quot;: &quot;CLASSIFICATION&quot;, &quot;creation_date&quot;: &quot;2024-06-06T11:43:53.732000&quot;, &quot;is_empty&quot;: false, &quot;is_anomalous&quot;: false}, &quot;6661a0f92022cd03936d3a81&quot;: {&quot;_id&quot;: &quot;6661a0f92022cd03936d3a81&quot;, &quot;name&quot;: &quot;Duck&quot;, &quot;color&quot;: {&quot;red&quot;: 191, &quot;green&quot;: 0, &quot;blue&quot;: 255, &quot;alpha&quot;: 255}, &quot;hotkey&quot;: &quot;&quot;, &quot;domain&quot;: &quot;CLASSIFICATION&quot;, &quot;creation_date&quot;: &quot;2024-06-06T11:43:53.732000&quot;, &quot;is_empty&quot;: false, &quot;is_anomalous&quot;: false}, &quot;6661a0f92022cd03936d3a87&quot;: {&quot;_id&quot;: &quot;6661a0f92022cd03936d3a87&quot;, &quot;name&quot;: &quot;No class&quot;, &quot;color&quot;: {&quot;red&quot;: 0, &quot;green&quot;: 0, &quot;blue&quot;: 0, &quot;alpha&quot;: 255}, &quot;hotkey&quot;: &quot;&quot;, &quot;domain&quot;: &quot;CLASSIFICATION&quot;, &quot;creation_date&quot;: &quot;2024-06-06T11:43:53.757000&quot;, &quot;is_empty&quot;: true, &quot;is_anomalous&quot;: false}}}}}" />
	</rt_info>
</net>
